ai_agent/models/best.pt (torch, 659530 bytes, 45 tensors)

shared.0.weight f4 [256, 11]
0.050729465 -0.0033057746 0.18941271 -0.17649055 -0.006792483 -0.046935022 0.37816516 -0.05617833
0.114412054 -0.13429129 0.02454364 0.49631912 0.4526517 0.4144381 0.25444674 0.056927357
0.07199055 0.5591817 0.03883438 0.060151298 0.32685566 -0.0054280497 0.063073136 -0.092369154
0.10991665 0.019749478 0.0036656675 -0.12008025 0.34309626 -0.034408092 0.045782614 0.01813688
0.03883842 0.014191555 0.021638805 0.07260667 0.014316443 0.015777979 -0.01690519 0.14677308
-0.038040698 0.07210288 0.0011771691 0.007294631 0.74806434 0.5693732 0.37524924 -0.25893196
0.008876954 0.014395362 0.568193 -0.040002342 0.05918722 0.44507304 -0.01322697 0.04184286
0.19059683 0.035491895 -0.10028434 -0.013050123 0.05799617 -0.08968955 0.083714664 -0.036122456
-0.0048115538 0.013249615 -0.04416846 -0.003470696 0.09500287 0.17976914 0.064401515 0.09246229
0.17664272 -0.012617881 0.012444439 0.08856451 0.00847402 -0.27871782 -0.09480756 -0.05854781
0.010570262 0.03956102 0.032992054 -0.03388316 -0.018051734 0.06118812 -0.08051881 0.026888784
-0.06482199 0.09359069 -0.088979416 -0.034393817 -0.01930624 -0.0770947 -0.06287171 0.0020681277
0.029741718 -0.01593172 0.01975315 -0.69882256 -0.6053232 -0.4353431 0.061038695 0.050490607
-0.03988549 -0.5885045 -0.005129542 0.010535671 -0.30214676 0.0371355 0.2069941 0.085120566
0.08512004 0.05736012 0.044060662 0.04935195 0.08354734 -0.016648075 0.042833496 0.13176847
0.01671807 -0.35561007 -0.16661923 -0.084897466 0.12393956 0.003157261 -0.07242364 -0.034433223
-0.06867794 0.08306093 -0.17602406 -0.010208658 -0.1121982 -0.19237171 0.029875606 -0.069973364
-0.034594204 -0.10560238 0.15453479 -0.0051968377 0.05244768 -0.17156966 0.030496912 -0.4165677
-0.2156412 -0.0688633 0.03676801 0.022836221 -0.08321953 -0.015093877 -0.028918976 0.0752376
-0.18629669 0.026450409 0.4295964 0.36853895 0.21117592 -0.24329895 0.016674006 0.13361081
0.06650035 0.06904324 -0.01593236 0.26849872 0.015543136 -0.0015910256 0.17452349 -0.013573689
-0.036279134 -0.0019665177 0.010725641 -0.034001376 0.0049138195 0.0035930434 0.04539042 0.031529892
0.19919033 0.13857801 0.0032862616 -0.27531448 -0.018756788 0.23645595 -0.33976057 -0.05009541
0.03175561 -0.10016455 0.039978016 0.30892238 0.3518205 0.25294766 0.089956276 0.06405014
0.1401831 0.20222752 0.062444452 0.024580931 0.2488874 -0.002079906 -0.17928866 0.015950078
-0.12776215 0.0010864462 -0.042606 -0.124203235 -0.07336198 0.0122830765 -0.033597592 0.1655952
0.032221172 0.02614705 0.08510222 -0.20275684 -0.2976952 0.077506684 0.118601374 -0.5866534
-0.031056596 -0.028280722 -0.21962881 0.04892991 0.13691877 0.41330823 0.10668329 -0.14639485
-0.02161892 0.1309892 -0.04795563 0.08469256 -0.03850069 0.12954934 0.013009941 -0.67244864
-0.6553274 -0.41447103 0.25542948 0.07336601 -0.09136288 -0.40990803 -0.018793672 0.010534381
-0.2916642 0.028890645 0.2270071 0.18831867 0.2629553 0.14067416 0.06484697 0.09619344
0.29021904 0.041854497 0.036602806 0.238178 -0.014605745 0.012042077 0.39267054 -0.0044480655
00000000: b3c9 4f3d b2a5 58bb 68f5 413e f0b9 34be
00000010: 7a93 debb f03e 40bd dd9e c13e 401b 66bd
00000020: de50 ea3d a883 09be be0f c93c 8a1d fe3e
00000030: f7c1 e73e 3b31 d43e d846 823e a92c 693d
00000040: c86f 933d 8826 0f3f cd10 1f3d 3561 763d
00000050: a059 a73e c8dd b1bb 7d2c 813d 0a2c bdbd
00000060: fb1b e13d a8c9 a13c b23b 703b a2ec f5bd
00000070: 50aa af3e 80ef 0cbd 8d86 3b3d cb93 943c
00000080: 0915 1f3d b283 683c dd43 b13c ceb2 943d
00000090: 848f 6a3c d240 813c c17c 8abc af4b 163e
000000a0: 90d0 1bbd adaa 933d 3e4b 9a3a cd07 ef3b
000000b0: 2581 3f3f 71c2 113f ab20 c03e bb92 84be
000000c0: a570 113c 86da 6b3c 1975 113f 7fd9 23bd
000000d0: 4c6e 723d 9de0 e33e efb5 58bc 6b63 2b3d
000000e0: d12b 433e f35f 113d e061 cdbd 2fd0 55bc
000000f0: 648d 6d3d 28af b7bd 9872 ab3d 24f5 13bd
00000100: 3daa 9dbb ea14 593c fde9 34bd 9e74 63bb
00000110: dd90 c23d 6715 383e f1e4 833d de5c bd3d
00000120: d4e1 343e 3bbb 4ebc c3e3 4b3c 4f61 b53d
00000130: 9ed6 0a3c 1ab4 8ebe 772a c2bd d4cf 6fbd
00000140: e42e 2d3c bc0a 223d ad22 073d 12c9 0abd
00000150: 3be1 93bc 65a0 7a3d 0ce7 a4bd de45 dc3c
00000160: 64c1 84bd 7aac bf3d d73a b6bd 88e0 0cbd
00000170: 1f28 9ebc d3e3 9dbd e2c2 80bd 6d89 073b
00000180: e7a4 f33c 3d83 82bc 5cd1 a13c 09e6 32bf
00000190: 76f6 1abf 4ae5 debe b603 7a3d 3dcf 4e3d
000001a0: f85e 23bd 3ba8 16bf b815 a8bb cf9d 2c3c
000001b0: fbb2 9abe 651b 183d 43f6 533e b153 ae3d
000001c0: 6a53 ae3d 72f2 6a3d f478 343d 4525 4a3d
000001d0: de1a ab3d 8b61 88bc 2d72 2f3d 50ee 063e
000001e0: 55f4 883c 8612 b6be 3b9e 2abe b9de adbd
000001f0: 06d4 fd3d 0dea 4e3b d852 94bd da09 0dbd
00000200: 05a7 8cbd d91b aa3d a73f 34be 3742 27bc
00000210: 2bc8 e5bd 17fd 44be b0bd f43c 324e 8fbd
00000220: a7b2 0dbd 1046 d8bd 5e3e 1e3e 3c4a aabb
00000230: 61d3 563d f5af 2fbe a9d4 f93c 5d48 d5be
00000240: 0cd1 5cbe 3408 8dbd 0e9a 163d 0713 bb3c
00000250: 006f aabd 4f4c 77bc 7de7 ecbc 2c16 9a3d
00000260: 8fc4 3ebe 87ae d83c 0ff4 db3e 23b1 bc3e
00000270: 803e 583e 5c23 79be ed97 883c 46d1 083e
00000280: 5631 883d 8b66 8d3d 9584 82bc aa78 893e
00000290: a3a8 7e3c f689 d0ba 49b6 323e 2e64 5ebc
000002a0: 6e99 14bd b1e0 00bb 99ba 2f3c 0745 0bbd
000002b0: 1b04 a13b 4479 6b3b 4eeb 393d 7d25 013d
000002c0: 8df8 4b3e 65e7 0d3e 525e 573b 05f6 8cbe
000002d0: d6a7 99bc 8221 723e 19f5 adbe d830 4dbd
000002e0: 2c12 023d 1223 cdbd fdbf 233d 132b 9e3e
000002f0: d121 b43e 5b82 813e ff3a b83d b82c 833d
00000300: 298c 0f3e bb14 4f3e c1c5 7f3d f35d c93c
00000310: 57dc 7e3e 084f 08bb 7297 37be bda9 823c
00000320: 15d4 02be 1667 8e3a a183 2ebd 445e febd
00000330: ce3e 96bd f53e 493c a19d 09bd ca91 293e
00000340: 59fa 033d 5732 d63c 134a ae3d 7d9f 4fbe
00000350: 816b 98be d3bb 9e3d 47e5 f23d eb2e 16bf
00000360: 676a febc f9ac e7bc 60e6 60be bb6a 483d
00000370: 6f34 0c3e 239d d33e c57c da3d 88e8 15be
00000380: 291a b1bc 0822 063e 1f6d 44bd 4b73 ad3d
00000390: e6b2 1dbd 95a8 043e a627 553c 9825 2cbf
000003a0: 89c3 27bf 8c35 d4be a7c7 823e eb40 963d
000003b0: 761c bbbd 77df d1be 30f5 99bc 6598 2c3c
000003c0: 0355 95be 13ac ec3c 8d74 683e 9cd6 403e
000003d0: 14a2 863e e30c 103e 7dce 843d 1101 c53d
000003e0: 9797 943e 9f6f 2b3d d3ec 153d efe4 733e
000003f0: ef4c 6fbc 224c 453c 1d0c c93e 14c1 91bb

shared.0.bias f4 [256]
0.02495716 -0.0004961736 0.036852486 0.0082280105 -0.00026006976 0.01563361 0.00977095 0.026361633
0.020694947 0.023173155 0.019277398 -0.012785162 0.025997095 0.022926109 0.023522466 0.033154987
0.03908379 0.0026342792 0.035187855 0.04732832 0.017438242 0.015511896 -0.010164842 0.027920337
0.018790755 0.028375363 -0.0040257014 0.05018147 0.033566307 0.042761814 0.02093689 0.05388363
0.035907675 0.020759195 0.035730213 -0.006259997 0.0046110344 0.04076374 0.021908555 0.026221367
-0.009220312 -0.016497804 0.014813798 0.01609217 0.03730705 0.025341615 0.014702689 0.0150896
0.04644724 0.06633448 0.028596835 0.011222998 0.03276635 0.014313455 0.033501633 -0.0076835644
-0.018150948 0.031121118 -0.004151674 0.07309195 -0.0021808804 0.013633054 -0.009680686 0.016374433
0.029788844 0.022797437 0.051175617 -0.016625723 0.02788199 0.019766724 -0.0054655774 0.029823788
0.040086515 0.026529677 0.029721 0.048555966 0.023131965 0.014462247 0.00024797418 0.044119477
0.07107455 0.04916787 -0.0056908415 0.036048837 0.02999186 0.07464898 -0.018027097 0.01519577
0.034413897 0.016484732 0.016908593 0.022765776 0.0003686636 0.018882059 0.02534388 0.036876924
0.03777969 0.035226204 -0.0015681257 0.04690896 0.0009267477 -0.009425423 0.011811944 0.053806
0.052709576 0.017026896 0.033623047 0.02236791 0.019566117 -0.0016652006 0.02989067 0.00059771293
0.06608068 0.008108077 0.06504159 0.014326195 0.05428684 0.052019384 0.018425845 0.036590986
-0.00034554375 0.025846157 0.029614182 0.049590733 0.020751052 0.019450853 0.020420324 0.014812805
0.051258203 0.025858993 0.024079788 0.02278731 0.041703206 0.015640575 0.029834041 0.04818819
0.003326543 0.04376408 -0.014587346 0.018323956 0.023602635 0.017035125 0.015024134 0.037964348
0.029655887 0.02260788 0.025259862 0.044358052 0.07851698 0.05256804 0.023638021 0.034433626
0.037784215 0.019313328 0.021954069 0.015584725 0.01502715 0.031230627 0.026251176 0.032508075
0.053357895 -0.008474938 0.039281674 0.04577869 0.020895014 0.010801607 0.033652883 -0.015256063
-0.01130491 -0.021857934 -0.01598487 0.017521262 0.010971794 -0.0077582593 0.025025684 0.016804498
0.037782192 0.021464104 0.020185066 0.020799916 0.02094331 0.021097321 0.021083038 0.030093027
0.00670551 0.03346447 0.034855776 0.010211163 0.029137325 -0.0004924054 0.032425318 0.0160578
0.030277286 0.043489024 0.025905458 -0.007338743 -0.0011418123 0.04700893 0.011216219 -0.016823366
-0.0073641026 0.012412561 0.0036029266 0.021067277 0.03490638 0.028692363 0.018127728 0.032646194
0.0070576975 0.02262198 0.0043190126 0.03906092 0.03374016 -0.012163712 0.053580914 0.01905634
0.026392614 0.015346575 0.07757141 -0.023320034 0.019114431 0.02004819 -0.01004852 0.018449044
0.029896937 0.022098036 0.021396209 0.057170954 0.01277297 0.009745628 0.02669712 0.033879355
0.04246102 0.013528626 0.0040592565 0.021652956 0.004160519 0.021483878 0.037310466 0.006953323
0.021829976 0.035642978 0.007528321 0.017696654 0.033158895 0.036494117 0.03234166 -0.023873633
0.03509181 0.013359597 -0.0016281151 0.021327319 0.008989872 0.021016832 0.027122302 -0.023668623
00000000: f572 cc3c a611 02ba a2f2 163d c7ce 063c
00000010: f959 88b9 0e12 803c 5616 203c 5af4 d73c
00000020: 7388 a93c a1d5 bd3c a2eb 9d3c db78 51bc
00000030: dcf7 d43c 89cf bb3c 30b2 c03c 86cd 073d
00000040: 5316 203d dfa3 2c3b 2421 103d 57db 413d
00000050: a5da 8e3c 9c25 7e3c 708a 26bc 31b9 e43c
00000060: 12ef 993c 7373 e83c 08ea 83bb 168b 4d3d
00000070: d37c 093d 0327 2f3d d783 ab3c 15b5 5c3d
00000080: ed13 133d 300f aa3c d859 123d a920 cdbb
00000090: 2918 973b e1f7 263d 9279 b33c 31ce d63c
000000a0: cb10 17bc 6726 87bc 92b5 723c bad3 833c
000000b0: 47cf 183d 3899 cf3c 8ce3 703c 5f3a 773c
000000c0: 763f 3e3d 5fda 873d e943 ea3c aae0 373c
000000d0: 0236 063d fb82 6a3c 0239 093d 69c6 fbbb
000000e0: 4cb1 94bc b7f1 fe3c c40a 88bb 3bb1 953d
000000f0: 1aed 0ebb 2c5d 5f3c bd9b 1ebc ad23 863c
00000100: bc07 f43c b1c1 ba3c 869d 513d ab32 88bc
00000110: c568 e43c d3ed a13c 9618 b3bb 0451 f43c
00000120: c231 243d c454 d93c 7479 f33c 9fe2 463d
00000130: 3f7f bd3c 0ff3 6c3c 8802 8239 a0b6 343d
00000140: 898f 913d 4064 493d 3d7a babb f2a7 133d
00000150: 7db1 f53c 90e1 983d 90ad 93bc aef7 783c
00000160: 96f5 0c3d fd0a 873c e483 8a3c 4b7f ba3c
00000170: 3149 c139 8cae 9a3c f89d cf3c 420c 173d
00000180: e0be 1a3d 5a49 103d 9189 cdba 9c23 403d
00000190: fcf0 723a 176d 1abc e286 413c ae63 5c3d
000001a0: ffe5 573d fd7b 8b3c 52b8 093d e83c b73c
000001b0: 1f49 a03c dc42 daba 47dd f43c d6af 1c3a
000001c0: 4f55 873d bdd7 043c 8634 853d 6bb8 6a3c
000001d0: e15b 5e3d 4712 553d ccf1 963c 6ee0 153d
000001e0: 192a b5b9 52bb d33c 7199 f23c a71f 4b3d
000001f0: 1cfe a93c 6557 9f3c 8648 a73c 68b1 723c
00000200: 1ff4 513d 3dd6 d33c fa42 c53c 74ac ba3c
00000210: fbd0 2a3d aa20 803c 8566 f43c fb60 453d
00000220: 2102 5a3b f741 333d c4ff 6ebc 1f1c 963c
00000230: 505a c13c 3f8d 8b3c c927 763c 8180 1b3d
00000240: e7f0 f23c 2934 b93c c5ed ce3c cab0 353d
00000250: 83cd a03d 9651 573d 86a4 c13c 460a 0d3d
00000260: 9fc3 1a3d fc36 9e3c 05d9 b33c 1357 7f3c
00000270: 6f34 763c 5fd7 ff3c b50c d73c 3027 053d
00000280: cf8d 5a3d 77da 0abc d2e5 203d 7082 3b3d
00000290: 052c ab3c 39f9 303c 9bd7 093d 91f4 79bc
000002a0: 3b38 39bc 690f b3bc b4f2 82bc c088 8f3c
000002b0: 0ac3 333c ff38 febb aa02 cd3c 96a9 893c
000002c0: 80c1 1a3d 7dd5 af3c 275b a53c 9664 aa3c
000002d0: 4e91 ab3c 4ad4 ac3c 56b6 ac3c a785 f63c
000002e0: e5b9 db3b 0a12 093d eec4 0e3d b94c 273c
000002f0: 66b1 ee3c c414 01ba 69d0 043d a68b 833c
00000300: 1208 f83c 8c21 323d af37 d43c d779 f0bb
00000310: dda8 95ba 708c 403d 3bc4 373c 28d1 89bc
00000320: 924e f1bb 0e5e 4b3c 141f 6c3b 4895 ac3c
00000330: fef9 0e3d 3f0c eb3c 9a80 943c 04b8 053d
00000340: 4244 e73b bb51 b93c 8186 8d3b 58fe 1f3d
00000350: 1f33 0a3d 4e4a 47bc a977 5b3d 0b1c 9c3c
00000360: 5335 d83c 3370 7b3c c2dd 9e3d a809 bfbc
00000370: de95 9c3c 1a3c a43c 8ca2 24bc 7322 973c
00000380: 6cea f43c f106 b53c 1a47 af3c 172c 6a3d
00000390: b845 513c 20ac 1f3c ebb3 da3c 14c5 0a3d
000003a0: 9beb 2d3d 2ca7 5d3c 8303 853b 8a61 b13c
000003b0: f754 883b f5fe af3c dcd2 183d b3d8 e33b
000003c0: c7d4 b23c 5ffe 113d 22b0 f63b 93f8 903c
000003d0: 9fd1 073d db7a 153d b078 043d a392 c3bc
000003e0: 6ebc 0f3d 36e2 5a3c 7a66 d5ba a1b6 ae3c
000003f0: 424a 133c 7e2b ac3c 972f de3c b3e4 c1bc

shared.1.weight f4 [256]
0.9565459 1.0620803 0.7912536 0.9685177 1.1350174 0.9980905 0.82309324 0.9414697
0.87928516 1.1033243 0.8974375 1.1058087 0.87048507 0.97757953 0.93776375 0.85279936
1.0849135 1.0005049 1.0810204 1.0945057 1.0034552 1.0935373 1.0446377 1.0026193
0.8986543 1.0715561 0.98217136 1.074999 1.0792007 0.94223696 0.92180115 1.0133615
0.9977243 1.0255669 0.9290038 1.0454667 0.9495293 1.1794416 0.8802154 0.91174436
1.0384486 1.0647877 0.9383791 1.1858945 1.1068869 0.9272131 0.868911 1.1589469
0.9025627 1.0600443 0.9975754 1.0047599 1.143553 0.87632143 0.9620711 1.1288842
1.0638089 0.9823512 1.0009389 1.0013154 1.0438999 0.9603777 0.9866948 0.9846151
0.94641554 0.9958285 1.01572 1.0321089 0.88568604 0.94459003 1.0229032 0.9004145
1.0637836 0.8506344 0.851444 0.96432143 1.0226775 1.066879 0.98364383 0.9875275
1.0816239 0.98783064 1.0224863 0.9872179 1.016006 1.1266552 1.09287 0.8997251
1.1565583 0.96673936 0.994776 0.8866844 1.0944207 0.99777657 0.94309795 0.95128334
0.9328455 1.1287165 1.0252022 1.0116172 0.97525537 1.0204401 0.9295113 0.98664504
0.9701674 0.98785853 0.88205487 0.95289385 0.8408706 0.9873261 0.85230756 0.993207
1.0263879 0.9727351 1.1828737 0.9211262 0.9422721 0.9542571 1.0217531 0.87453485
1.1336256 0.9608532 0.94622034 1.0470474 0.89335585 0.9087152 1.058808 0.9748655
0.99183667 0.9798658 0.97913015 0.95579106 0.99776834 1.050306 1.0151441 0.95508707
1.2732476 1.0043136 1.0332454 1.0455112 0.9686755 0.8560082 0.93522483 0.95800024
0.9799191 0.94125205 0.89216256 1.1068035 1.1118364 1.1204189 1.0371832 0.84847164
1.0892284 1.0248574 0.9812435 0.9352169 0.9290723 0.8448926 1.0785643 0.7844881
1.0899376 1.0407519 1.1429644 0.99476856 0.9819337 1.1155895 1.0115192 1.0532463
1.0607588 1.1024046 1.1225419 1.0173097 0.9030864 0.97861195 0.9770846 0.92122716
1.0924376 0.9160741 0.94260484 0.94451433 0.96979105 0.9372203 1.0102876 1.0962982
1.0266243 1.1027542 0.8993232 0.95234036 1.1663303 0.99629974 1.0729557 0.95522845
0.8732592 1.1387774 0.9249087 1.0158992 0.95604974 1.0611593 1.0347172 1.0471699
0.9776707 1.0232083 0.93321 0.96333075 0.97317743 0.8998452 1.0355632 0.9392962
1.0928928 0.90775687 1.0211858 1.1052072 1.1497396 0.98684794 1.1705656 0.9497041
1.0421151 0.9593051 1.0638826 1.1039399 0.91270924 0.9471455 1.0039281 0.97301096
0.99821436 1.2267804 0.97527075 1.0622095 1.0403974 1.0522217 0.8034543 0.93490565
0.98801124 0.9485279 1.0717093 0.8966253 0.91592246 1.1462857 1.0304794 0.8911999
1.0120214 1.0119288 1.0770174 0.9564154 0.9817818 1.1652501 0.94850063 1.128595
0.77190816 0.9974428 1.0557683 0.90196383 1.0704957 0.9352897 0.9775962 1.0286496
00000000: 31e0 743f 3ff2 873f 998f 4a3f c7f0 773f
00000010: 4048 913f dc82 7f3f 3db6 523f 2904 713f
00000020: d518 613f bb39 8d3f 77be 653f 248b 8d3f
00000030: 1cd8 5e3f a742 7a3f 4911 703f 0f51 5a3f
00000040: 72de 8a3f 8b10 803f e05e 8a3f c318 8c3f
00000050: 3871 803f 08f9 8b3f b0b6 853f d455 803f
00000060: 350e 663f c028 893f 956f 7b3f 9199 893f
00000070: 4023 8a3f 7136 713f 29fb 6b3f d4b5 813f
00000080: dc6a 7f3f c745 833f 31d3 6d3f dad1 853f
00000090: 5a14 733f f1f7 963f cc55 613f 1468 693f
000000a0: e2eb 843f f74a 883f 9d39 703f 64cb 973f
000000b0: 78ae 8d3f d65d 6d3f f470 5e3f 5f58 943f
000000c0: 590e 673f 88af 873f 1a61 7f3f f99b 803f
000000d0: f25f 923f 9a56 603f 4b4a 763f 477f 903f
000000e0: e42a 883f 5e7b 7b3f c41e 803f 1a2b 803f
000000f0: 839e 853f 50db 753f 0898 7c3f bc0f 7c3f
00000100: 4a48 723f 9eee 7e3f 1d03 823f 251c 843f
00000110: 52bc 623f a7d0 713f 7eee 823f 9181 663f
00000120: 102a 883f 2dc3 593f 3cf8 593f c5dd 763f
00000130: 19e7 823f 7e8f 883f 15d0 7b3f 9ace 7c3f
00000140: a772 8a3f 78e2 7c3f d5e0 823f 50ba 7c3f
00000150: 7c0c 823f 3d36 903f 2ae3 8b3f 6254 663f
00000160: 1a0a 943f 3b7c 773f a4a9 7e3f c0fd 623f
00000170: fa15 8c3f 496e 7f3f de6e 713f 4e87 733f
00000180: f6ce 6e3f c879 903f d339 833f ac7c 813f
00000190: 56aa 793f c89d 823f 74f4 6d3f c594 7c3f
000001a0: e45c 783f 4ce4 7c3f 59ce 613f daf0 733f
000001b0: 4c43 573f 67c1 7c3f d430 5a3f d042 7e3f
000001c0: ae60 833f 2b05 793f 6868 973f edce 6b3f
000001d0: bf38 713f 314a 743f cec8 823f 84e1 5f3f
000001e0: a51a 913f 7afa 753f 7f3b 723f a605 863f
000001f0: f8b2 643f 8fa1 683f 0587 873f c990 793f
00000200: 02e9 7d3f 7cd8 7a3f 46a8 7a3f b9ae 743f
00000210: bf6d 7f3f 6d70 863f 3ef0 813f 9680 743f
00000220: c7f9 a23f 598d 803f 6341 843f 50d3 853f
00000230: 1efb 773f 5a23 5b3f e56a 6f3f 813f 753f
00000240: fadb 7a3f e5f5 703f c464 643f bdab 8d3f
00000250: a850 8e3f e369 8f3f 6bc2 843f 7035 593f
00000260: d66b 8b3f 872e 833f c632 7b3f 606a 6f3f
00000270: afd7 6d3f e24a 583f 650e 8a3f 36d4 483f
00000280: 1383 8b3f 5c37 853f a84c 923f 27a9 7e3f
00000290: 0260 7b3f a3cb 8e3f 7679 813f c6d0 863f
000002a0: f2c6 873f 981b 8d3f 74af 8f3f 3437 823f
000002b0: ac30 673f 5086 7a3f 3722 7a3f 8bd5 6b3f
000002c0: ffd4 8b3f d583 6a3f 8d4e 713f b1cb 713f
000002d0: 3a44 783f abed 6f3f 1b51 813f 8053 8c3f
000002e0: 6d68 833f 0d27 8d3f 0c3a 663f 94cc 733f
000002f0: 504a 953f 800d 7f3f 9d56 893f da89 743f
00000300: ea8d 5f3f 75c3 913f d1c6 6c3f fc08 823f
00000310: adbf 743f 11d4 873f 9d71 843f aa09 863f
00000320: a148 7a3f 7df8 823f dae6 6e3f d89c 763f
00000330: 2822 793f 415c 663f 568d 843f b775 703f
00000340: e9e3 8b3f c162 683f 37b6 823f 6e77 8d3f
00000350: ab2a 933f 11a2 7c3f 18d5 953f cf1f 733f
00000360: 0764 853f 0595 753f 4e2d 883f e74d 8d3f
00000370: 50a7 693f 2178 723f b780 803f 3f17 793f
00000380: fa8a 7f3f 2407 9d3f 58ab 793f 7bf6 873f
00000390: be2b 853f 33af 863f 2eaf 4d3f fa55 6f3f
000003a0: 4eee 7c3f b9d2 723f c52d 893f 3c89 653f
000003b0: e579 6a3f 7db9 923f c0e6 833f ad25 643f
000003c0: eb89 813f e286 813f b5db 893f a4d7 743f
000003d0: 0d56 7b3f ea26 953f f0d0 723f cd75 903f
000003e0: c69b 453f 6958 7f3f 6a23 873f 1ae7 663f
000003f0: 0106 893f 256f 6f3f bf43 7a3f caaa 833f

shared.1.bias f4 [256]
-0.12371254 -0.05868573 -0.18801017 -0.072771735 -0.027564246 -0.026960243 -0.1470957 -0.08790504
-0.12969317 -0.047364444 -0.05788303 -0.006309777 -0.11315045 -0.040537126 -0.04123819 -0.14563793
-0.06704717 0.0028787144 -0.05895292 -0.043460913 -0.02804472 -0.050844293 -0.01667648 -0.04238461
-0.12298927 -0.024819786 -0.05665385 -0.040152665 -0.0036107597 -0.03992528 -0.07007584 -0.021558734
-0.041761022 -0.028999163 -0.054972377 0.009645898 -0.05377759 -0.0110681085 -0.1361667 -0.071330994
-0.0012449077 -0.05094915 -0.08877967 -0.08090528 -0.016757539 -0.09742199 -0.061347347 0.012815972
-0.07320783 -0.025253983 -0.07094498 -0.031370625 -0.017360331 -0.15046152 -0.10307194 -0.073695816
-0.012442561 -0.08173317 -0.008731419 0.03622006 0.016476061 -0.07282278 -0.053107467 -0.082860895
-0.043592725 -0.04737369 -0.06861827 -0.017065065 -0.09480194 -0.081786126 0.004373489 -0.114279985
-0.09685784 -0.13964356 -0.13304839 -0.02381941 -0.036420234 -0.063197985 -0.022586837 -0.09986098
0.08293423 -0.11288466 -0.018324895 -0.066626765 -0.031625032 0.07283953 -0.0035849544 -0.08869761
-0.002941925 -0.014859971 -0.057646714 -0.13036218 0.021161998 -0.08819398 -0.081707716 -0.049908813
-0.093276724 -0.009844391 -0.019557307 -0.036683645 -0.009061302 -0.03531078 -0.12393052 0.0020848212
-0.04350961 -0.058134224 -0.119460635 -0.057114694 -0.12601373 -0.050812744 -0.13472605 -0.0641478
-0.04890819 -0.047111325 0.0019825057 -0.086404994 -0.039151654 -0.033394545 -0.04027119 -0.11121328
-0.04060538 -0.049189154 -0.08181499 -0.0556427 -0.09511538 -0.08454557 -0.0406168 -0.061775085
-0.040493656 -0.07309528 -0.05274379 -0.04667305 0.024209574 -0.018275296 -0.06126931 -0.049689323
-0.049634468 -0.09868726 -0.039205573 -0.019048106 -0.053854592 -0.14691463 -0.079324625 -0.067557655
-0.08339711 -0.08664606 -0.12234061 -0.013874081 0.078609824 8.072196e-05 -0.015043927 -0.13922332
0.01051481 -0.03652579 -0.025957303 -0.08510391 -0.09203446 -0.11852533 -0.008132162 -0.22762291
0.045164376 0.0050466107 -0.004389079 -0.039470695 -0.08709588 0.0116638215 -0.058077946 -0.0017433966
-0.016911507 0.012630904 0.007905112 -0.04782033 -0.124045715 -0.029008316 -0.08792238 -0.065945216
-0.02249878 -0.12985191 -0.107549354 -0.123146206 -0.041602306 -0.07488827 -0.04449284 -0.045163468
-0.018000498 -0.025043601 -0.0905378 -0.05119087 -0.056025613 -0.017623816 -0.042965494 -0.06527406
-0.11150186 -0.0019155092 -0.09665124 -0.005424969 -0.0895788 -0.08851887 -0.019043628 -0.019080507
-0.035657886 -0.041503098 -0.048360217 -0.09482556 -0.073291644 -0.10668978 -0.0014574182 -0.09366683
-0.041312363 -0.09533398 -0.08247204 -0.002290431 -0.02161677 -0.030890314 -0.02661977 -0.052342623
-0.025218062 -0.067179285 0.03537925 0.004475045 -0.10238471 -0.08060359 -0.01746016 -0.0037403526
-0.036019485 -0.008170434 -0.064070836 -0.06338183 0.013791721 -0.032513473 -0.1655971 -0.047621362
-0.067889474 -0.043269634 0.024497885 -0.08933636 -0.1062739 -0.026183996 -0.03866165 -0.076059416
-0.04274088 -0.037667274 -0.10641834 -0.043426577 -0.15796342 -0.0058548255 -0.07064231 0.02124722
-0.22858958 -0.12377262 0.021477498 -0.10407781 -0.064591795 -0.07681548 -0.064048536 -0.041538455
00000000: 005d fdbd 7360 70bd bd85 40be 5909 95bd
00000010: 6ace e1bc badb dcbc 41a0 16be 8f07 b4bd
00000020: 49ce 04be 3801 42bd c216 6dbd 3fc2 cebb
00000030: 6cbb e7bd 420a 26bd 60e9 28bd 1c22 15be
00000040: 0750 89bd d0a8 3c3b 9e78 71bd 1204 32bd
00000050: 0abe e5bc 1b42 50bd 1d9d 88bc 7c9b 2dbd
00000060: cce1 fbbd dd52 cbbc de0d 68bd 1f77 24bd
00000070: 7fa2 6cbb b188 23bd ec83 8fbd f19b b0bc
00000080: 9b0d 2bbd a78f edbc b72a 61bd d409 1e3c
00000090: e445 5cbd 0357 35bc 496f 0bbe fc15 92bd
000000a0: 2c2c a3ba 0eb0 50bd 1ed2 b5bd abb1 a5bd
000000b0: 1b47 89bc 2e85 c7bd 5b47 7bbd 15fa 513c
000000c0: fded 95bd 71e1 cebc 9a4b 91bd 7c7e 00bd
000000d0: 4137 8ebc 9612 1abe 6217 d3bd d5ed 96bd
000000e0: e2db 4bbc b863 a7bd 3a0e 0fbc 7c5b 143d
000000f0: cef8 863c 1c24 95bd 3787 59bd f9b2 a9bd
00000100: 498e 32bd ea0a 42bd bc87 8cbd 09cc 8bbc
00000110: 8527 c2bd 7c7f a7bd 7c4f 8f3b a00b eabd
00000120: 675d c6bd b9fe 0ebe d63d 08be ec20 c3bc
00000130: 622d 15bd f26d 81bd 0808 b9bc ea83 ccbd
00000140: 6cd9 a93d 1330 e7bd 171e 96bc 9d73 88bd
00000150: 4089 01bd e42c 953d 8ef1 6abb 18a7 b5bd
00000160: 50cd 40bb 3c77 73bc f61e 6cbd aa7d 05be
00000170: ed5b ad3c 0c9f b4bd 6056 a7bd 2f6d 4cbd
00000180: de07 bfbd 5e4a 21bc a536 a0bc 9741 16bd
00000190: db75 14bc 09a2 10bd 49cf fdbd 7fa1 083b
000001a0: 2237 32bd 271e 6ebd c7a7 f4bd 19f1 69bd
000001b0: be09 01be 0621 50bd a0f5 09be ec5f 83bd
000001c0: f453 48bd cef7 40bd edec 013b 1af5 b0bd
000001d0: 7c5d 20bd b8c8 08bd 67f3 24bd cac3 e3bd
000001e0: d451 26bd 917a 49bd 9e8e a7bd 9ae9 63bd
000001f0: dacb c2bd 3a26 adbd cd5d 26bd df07 7dbd
00000200: addc 25bd fab2 95bd df09 58bd 3d2c 3fbd
00000210: 2853 c63c 13b6 95bc 87f5 7abd 0887 4bbd
00000220: 834d 4bbd 8c1c cabd 0696 20bd c60a 9cbc
00000230: a296 5cbd ca70 16be f374 a2bd ab5b 8abd
00000240: 1bcc aabd 7d73 b1bd b78d fabd 1d50 63bc
00000250: 30fe a03d 4649 a938 ce7a 76bc 8f90 0ebe
00000260: 4f46 2c3c 119c 15bd 69a4 d4bc f54a aebd
00000270: 907c bcbd 69bd f2bd c23c 05bc fb15 69be
00000280: 48fe 383d 0a5e a53b 43d2 8fbb 06ac 21bd
00000290: 535f b2bd 9d19 3f3c 24e3 6dbd af82 e4ba
000002a0: 008a 8abc daf1 4e3c 7184 013c 40df 43bd
000002b0: ae0b febd d9a2 edbc a610 b4bd 490e 87bd
000002c0: 5d4f b8bc e6f7 04be d642 dcbd 1434 fcbd
000002d0: 2e67 2abd 055f 99bd 203e 36bd 54fd 38bd
000002e0: c875 93bc 3d28 cdbc e26b b9bd 85ad 51bd
000002f0: 1d7b 65bd d25f 90bc 96fc 2fbd 68ae 85bd
00000300: 165b e4bd d311 fbba 16f1 c5bd f0c3 b1bb
00000310: 1775 b7bd 6249 b5bd 6201 9cbc b94e 9cbc
00000320: 010e 12bd 27ff 29bd 5d15 46bd e733 c2bd
00000330: ee19 96bd 2c80 dabd d706 bfba 65d4 bfbd
00000340: 2737 29bd 763e c3bd 1ae7 a8bd 0e1b 16bb
00000350: a715 b1bc af0d fdbc b411 dabc 3865 56bd
00000360: 1c96 cebc 4b95 89bd d5e9 103d 66a3 923b
00000370: 13af d1bd 7f13 a5bd 9c08 8fbc b420 75bb
00000380: 2b89 13bd 49dd 05bc 9237 83bd 55ce 81bd
00000390: acf6 613c d92c 05bd 4992 29be 9e0e 43bd
000003a0: a309 8bbd 803b 31bd caaf c83c fbf5 b6bd
000003b0: 21a6 d9bd d27f d6bc ae5b 1ebd 0ac5 9bbd
000003c0: 1011 2fbd 0049 1abd dcf1 d9bd 11e0 31bd
000003d0: 2ac1 21be d6d9 bfbb eaac 90bd a60e ae3c
000003e0: 6313 6abe 807c fdbd 94f1 af3c bf26 d5bd
000003f0: b448 84bd 6f51 9dbd e12b 83bd 3a24 2abd

shared.4.weight f4 [128, 256]
-0.031330314 0.014667084 0.04546969 0.039098244 0.017461238 -0.12448022 0.051232345 0.062402423
-0.014675302 -0.05903354 -0.0052209385 0.06186902 0.03244445 0.066094436 -0.062346008 -0.05293372
-0.02536967 -0.02562072 0.109933294 0.03720988 -0.09505366 -0.064649776 0.018383052 -0.11474137
-0.023091486 0.00040741163 0.04291814 -0.04551281 0.062933244 0.07445347 0.0001408073 -0.023707995
0.09094224 -0.10482746 0.04333855 -0.028730048 0.022427008 -0.09680281 -0.031989254 -0.021579538
0.025484296 0.030573528 0.079668336 0.014579056 0.020884192 0.0026202523 0.035716016 -0.060323335
0.00762499 -0.041615617 0.09008674 -0.09997668 -0.03854485 -0.08371951 -0.04530261 -0.022623522
0.0013169078 -0.05374137 -0.062150385 -0.009690426 -0.022798 -0.019387906 -0.08660541 0.0085569415
0.015516826 -0.043415267 0.09335449 -0.011741111 0.003746495 -0.012253863 0.041585144 0.010983867
-0.013258186 -0.006338683 0.004708593 -0.029613456 -0.0014202368 0.10294772 -0.037920635 0.041918337
0.009416282 0.07036564 -0.016567787 0.054626867 0.034624808 -0.038330477 0.014612982 -0.0547724
0.0332559 -0.03596202 0.088631384 -0.023627246 0.0068991184 -0.0540615 -0.02330161 -0.00431151
-0.009875986 -0.06431435 0.036846623 0.06379699 -0.0018644975 0.00998433 0.05727969 0.032357275
0.047677144 -0.01594352 -0.006685421 -0.08691818 -0.015706085 0.06387314 -0.039461486 0.008684934
-0.041943725 0.004894297 0.08303068 -0.023520388 -0.0021063092 -0.013971563 0.059153453 -0.033745676
-0.060358305 0.034627855 -0.08291555 -0.047965277 -0.0050694314 0.0021499938 0.102112174 -0.049401697
0.03348081 -0.08327059 0.06002447 -0.10455681 -0.0036316484 -0.030854337 0.06287066 0.026245732
0.13782915 0.05089738 0.011817283 -0.023526516 -0.06946157 0.052886263 0.07915576 -0.029852955
0.12227137 0.04951094 -0.022211373 -0.012848949 -0.0141925905 -0.0042908764 -0.010600252 -0.04177904
0.0358118 -0.018501965 0.03656935 0.071119055 -0.0011188462 0.004742106 0.011496777 0.10284501
-0.01803335 -0.027204504 -0.05389169 -0.014810241 0.09039459 -0.0054585817 0.068104744 -0.05052467
-0.010784906 0.02750297 -0.06257934 0.00061466725 0.10893353 -0.031115716 0.020830354 0.0042140493
0.039490364 0.017727813 0.055053215 -0.03368289 -0.0616208 -0.06508222 -0.015975432 0.010802644
-0.010346373 -0.011144859 -0.04967832 0.01781393 0.0552315 0.0032092547 0.06427058 -0.021441996
-0.055315476 0.07505595 -0.039708667 -0.00060393795 0.032684065 -0.067434825 -0.04738092 0.020318486
0.0047907294 0.01857909 -0.00022684601 -0.010389346 -0.045556825 0.010776995 0.011044432 0.08481966
0.07434185 -0.0025708904 -0.0037410434 -0.056352913 0.0020698395 -0.008541844 0.09892245 -0.02363768
-0.026925975 -0.0151431365 -0.006692178 0.038682815 0.008292111 -0.033151347 -0.0015019412 0.057558037
-0.013842252 0.19638813 -0.078162186 0.03601235 -0.03559617 0.039814673 -0.03803726 -0.0099301115
0.058882784 -0.07165017 -0.031417754 0.002254226 0.004658484 0.07070912 0.02329191 0.0006819677
-0.06321913 0.0018716942 0.14633107 0.034787346 0.06608818 -0.091708146 -0.07565539 0.072216995
-0.045875274 -0.024639973 -0.03222982 0.074617706 0.06698995 -0.063976474 -0.01072537 0.036933705
00000000: 3754 00bd 364e 703c 6d3e 3a3d 7b25 203d
00000010: df0a 8f3c 7cef febd 02d9 513d af99 7f3d
00000020: ae70 70bc 27cd 71bd 6814 abbb 5f6a 7d3d
00000030: 79e4 043d 855c 873d 875e 7fbd 07d1 58bd
00000040: 0ed4 cfbc 8be2 d1bc b524 e13d 6369 183d
00000050: 7eab c2bd 1a67 84bd 0e98 963c 86fd eabd
00000060: 5b2a bdbc dd99 d539 eeca 2f3d a46b 3abd
00000070: 25e3 803d 107b 983d aca5 1339 4537 c2bc
00000080: ed3f ba3d c8af d6bd c383 313d 475b ebbc
00000090: d8b8 b73c 8d40 c6bd 2a07 03bd 92c7 b0bc
000000a0: 71c4 d03c 5675 fa3c 2729 a33d fedc 6e3c
000000b0: 5315 ab3c 8ab8 2b3b f54a 123d 9a15 77bd
000000c0: 0ddb f93b 2375 2abd 667f b83d 93c0 ccbd
000000d0: 34e1 1dbd 2275 abbd 3b8f 39bd f754 b9bc
000000e0: 189c ac3a e91f 5cbd 6791 7ebd 98c4 1ebc
000000f0: dfc2 babc 63d3 9ebc 2d5e b1bd 6a32 0c3c
00000100: 493a 7e3c 35d4 31bd a430 bf3d ca5d 40bc
00000110: c187 753b 6dc4 48bc 2f55 2a3d adf5 333c
00000120: dd38 59bc bab4 cfbb 8a4a 9a3b eb97 f2bc
00000130: 3d27 baba 41d6 d23d ab52 1bbd 90b2 2b3d
00000140: c046 1a3c dc1b 903d 2bb9 87bc 6cc0 5f3d
00000150: bed2 0d3d 6b00 1dbd 4a6b 6f3c 0659 60bd
00000160: 5737 083d e94c 13bd 5f84 b53d ed8d c1bc
00000170: 0012 e23b 976f 5dbd 05e3 bebc 9147 8dbb
00000180: e3ce 21bc 3eb7 83bd 7cec 163d ffa7 823d
00000190: 2862 f4ba 5195 233c 1c9e 6a3d 1089 043d
000001a0: 1c49 433d fc9b 82bc 6011 dbbb 2902 b2bd
000001b0: 0caa 80bc eccf 823d 5ea2 21bd 414b 0e3c
000001c0: 2fcd 2bbd 5760 a03b fd0b aa3d d4ad c0bc
000001d0: 010a 0abb fce8 64bc e44a 723d e838 0abd
000001e0: 453a 77bd f0d5 0d3d a1cf a9bd 3d77 44bd
000001f0: 791d a6bb e9e6 0c3b 3020 d13d 6f59 4abd
00000200: 2c23 093d c589 aabd 38dc 753d e121 d6bd
00000210: f300 6ebb 3cc2 fcbc 55c2 803d 4a01 d73c
00000220: 1623 0d3e c579 503d 479d 413c aeba c0bc
00000230: de41 8ebd 449f 583d 6a1c a23d 2f8e f4bc
00000240: 6969 fa3d fccb 4a3d a0f4 b5bc 6684 52bc
00000250: 0a88 68bc 7b9a 8cbb aeac 2dbc 8020 2bbd
00000260: 65af 123d 6f91 97bc bec9 153d dea6 913d
00000270: 40a6 92ba ab63 9b3b fa5c 3c3c 68a0 d23d
00000280: adba 93bc fbdb debc 88bd 5cbd a7a6 72bc
00000290: cc20 b93d e7dd b2bb 807a 8b3d f5f2 4ebd
000002a0: 2db3 30bc e94d e13c 9929 80bd 9f21 213a
000002b0: 8b18 df3d 63e6 febc 6ba4 aa3c 0216 8a3b
000002c0: a6c0 213d eb39 913c 7b7f 613d 12f7 09bd
000002d0: 1866 7cbd d449 85bd e9de 82bc 93fd 303c
000002e0: d583 29bc ed98 36bc 7e7b 4bbd 85ee 913c
000002f0: 6d3a 623d 5c52 523b 4ba0 833d 20a7 afbc
00000300: 7b92 62bd efb6 993d 8ea5 22bd 9751 1eba
00000310: badf 053d 451b 8abd 7f12 42bd f472 a63c
00000320: 8dfb 9c3b 2d33 983c 83dd 6db9 1338 2abc
00000330: cb99 3abd fe91 303c b5f3 343c eeb5 ad3d
00000340: 8a40 983d 627c 28bb 4b2c 75bb 50d2 66bd
00000350: 25a6 073b 17f3 0bbc da97 ca3d cfa3 c1bc
00000360: dd93 dcbc eb1a 78bc 0f4a dbbb df71 1e3d
00000370: a2db 073c b5c9 07bd c9dc c4ba fac1 6b3d
00000380: 9dca 62bc f819 493e 7f13 a0bd b081 133d
00000390: 4acd 11bd b614 233d f5cc 1bbd e8b1 22bc
000003a0: 132f 713d 53bd 92bd e7af 00bd a3bb 133b
000003b0: 32a6 983b f1cf 903d adce be3c 14c6 323a
000003c0: 0879 81bd a353 f53a d0d7 153e 2d7d 0e3d
000003d0: 3d59 873d 7bd1 bbbd 37f1 9abd 81e6 933d
000003e0: b6e7 3bbd c5d9 c9bc 6a03 04bd 2bd1 983d
000003f0: 0732 893d 1906 83bd 76b9 2fbc cc47 173d

shared.4.bias f4 [128]
-0.013899697 -0.00113486 -0.0012043305 -0.021612626 0.036808096 -0.0027275905 0.011910313 0.029503334
0.041983735 -0.01512793 -0.010898331 0.029646082 0.029106198 0.023948735 -0.025341408 -0.023733249
-0.023445541 0.010457528 -0.021203937 -0.0077351546 -0.01563891 0.029014751 -0.0011310987 -0.009322103
0.0064289495 -0.014479949 -0.006599395 -0.024869481 0.034958195 -0.022387715 0.014649203 0.005892445
-0.0023577376 0.030939156 -0.008996572 0.02101282 -0.025328076 -0.0047610183 0.009890802 0.011074657
0.016038442 -0.0029003248 0.037925184 0.02840692 0.0027284084 0.009794138 0.021320894 0.03179791
-0.014763829 0.054228112 0.02497188 -0.02395421 -0.018517707 -0.02465931 0.010602743 0.06365168
-0.02723526 0.029901387 -0.013761992 -0.032956995 0.012592745 -0.002734292 0.025999296 -0.011313097
0.054310624 0.04146974 -0.027229361 2.9800802e-05 0.022994904 -0.0064311414 0.016775455 0.015868712
0.022468641 -0.014349249 -0.02657238 -0.0157062 -0.01168791 0.009197975 0.012378718 0.013759108
0.035523277 0.009578951 0.024735756 0.013558841 0.017732779 0.0065412913 0.024624666 0.00651594
0.06597221 0.005447736 0.028787747 -0.010675742 -0.038499516 -0.009585087 -0.02193392 0.018718036
-0.016260277 0.0114611415 0.005770809 -0.017846651 0.01637525 0.007343039 0.023220219 -0.005577771
0.008465158 0.016162543 0.024260418 -0.011032431 0.021069838 -0.0151058985 0.03278715 0.002008974
0.006225979 0.009868619 -0.029010084 -0.0059345374 -0.006484505 -0.024959242 -0.0240214 0.012119863
-0.0014624391 0.007524468 -0.021478407 -0.016097978 0.00029455812 0.029593842 0.028194468 0.017609572
00000000: 8ebb 63bc 95bf 94ba a0da 9dba f60c b1bc
00000010: 16c4 163d 60c1 32bb 7923 433c fab0 f13c
00000020: 23f7 2b3d 23db 77bc ea8e 32bc 57dc f23c
00000030: 1f70 ee3c 2330 c43c c998 cfbc 3b6c c2bc
00000040: dd10 c0bc 0d56 2b3c e1b3 adbc 2e77 fdbb
00000050: 2c1d 80bc 58b0 ed3c 6041 94ba bcbb 18bc
00000060: f0a9 d23b 4f3d 6dbc bd3f d8bb 15bb cbbc
00000070: 5330 0f3d 7166 b7bc 3603 703c 6915 c13b
00000080: 4684 1abb 1d74 fd3c 5c66 13bc 1423 ac3c
00000090: d37c cfbc 5102 9cbb 080d 223c 7a72 353c
000000a0: 0d63 833c 6013 3ebb 7057 1b3d a1b5 e83c
000000b0: 19cf 323b 9877 203c 28a9 ae3c 863e 023d
000000c0: fde3 71bc 4c1e 5e3d d491 cc3c 9f3b c4bc
000000d0: 72b2 97bc 5202 cabc 21b7 2d3c d05b 823d
000000e0: 7b1c dfbc c1f3 f43c fa79 61bc eafd 06bd
000000f0: cd51 4e3c cf31 33bb 7afc d43c 915a 39bc
00000100: d174 5e3d 2ddc 293d 1c10 dfbc bcfc f937
00000110: cf5f bc3c 53bc d2bb ae6c 893c 1aff 813c
00000120: 2810 b83c 1d19 6bbc 52ae d9bc 4aaa 80bc
00000130: a67e 3fbc 1ab3 163c 1bd0 4a3c e26d 613c
00000140: db80 113d 08f1 1c3c a4a2 ca3c e725 5e3c
00000150: 5544 913c 5458 d63b abb9 c93c ab83 d53b
00000160: 701c 873d ec82 b23b 48d4 eb3c 4fe9 2ebc
00000170: abb1 1dbd c50a 1dbc c4ae b3bc 9156 993c
00000180: 4634 85bc 83c7 3b3c 0e19 bd3b 2433 92bc
00000190: 6325 863c e09d f03b 5438 be3c bcc5 b6bb
000001a0: 72b1 0a3c 4f67 843c c9bd c63c 5fc1 34bc
000001b0: a79a ac3c bb7e 77bc d24b 063d fea8 033b
000001c0: 4c03 cc3b fdaf 213c 8ea6 edbc 8276 c2bb
000001d0: f87b d4bb 5377 ccbc 87c8 c4bc 6492 463c
000001e0: 50af bfba d08f f63b 7cf3 afbc e8df 83bc
000001f0: ec6e 9a39 c96e f23c 16f8 e63c f341 903c

shared.5.weight f4 [128]
0.9751057 1.0956329 1.0236502 1.0040345 1.0390384 1.0113264 1.1185421 1.1218352
1.0122031 1.0344839 1.027508 1.1011174 1.0535405 1.1144253 1.044357 1.1522979
1.0998049 1.1145809 0.9772482 1.0518459 1.1045905 1.0869478 1.0229503 0.9824284
1.0262722 1.1342921 1.1033965 1.1209122 1.2044442 1.1131642 1.0561851 1.0355467
1.0548532 1.1044078 1.0591879 1.1615223 1.1421952 1.0715545 1.0205125 1.0392313
1.0648979 1.0949863 1.0923829 1.0342624 1.1045625 0.9929533 1.0329713 1.0248634
1.1385225 1.0156811 1.0990586 1.0170621 0.9249554 1.0955495 1.1038651 1.091596
1.0995617 1.1215851 1.0359132 1.0051341 1.1542536 1.0212238 1.0612848 1.1757023
0.97878015 1.030748 0.9551792 1.0383285 1.132587 1.0273715 1.0564125 1.0740403
1.0230719 1.0679154 0.9752413 1.1148779 1.1086107 0.9888132 1.1845616 1.0490015
1.1420051 1.1724024 1.1431065 1.0713154 1.059318 1.0253576 1.0397375 1.0443442
1.0331421 1.0294682 1.1290818 1.08901 1.1052579 1.0853117 1.0858215 1.0218462
1.0695467 1.0440732 1.1483634 1.0337683 1.0064125 1.0939475 1.0276037 1.0855453
1.1150265 1.1238754 1.0491738 1.0136949 1.0379009 1.0941563 1.0229727 1.1483517
1.1093051 1.0359251 1.1034979 1.0263629 1.0284858 1.0359201 1.0640061 1.0660274
1.0486604 1.0897747 1.0699844 1.1292362 1.1300501 1.0546267 1.0745449 1.0760727
00000000: 87a0 793f b33d 8c3f f806 833f 3484 803f
00000010: 36ff 843f 2573 813f 632c 8f3f 4c98 8f3f
00000020: df8f 813f f869 843f 6285 833f 6af1 8c3f
00000030: 6ada 863f 7da5 8e3f 7dad 853f 7f7e 933f
00000040: 68c6 8c3f 96aa 8e3f f02c 7a3f e3a2 863f
00000050: 3963 8d3f 1b21 8b3f 09f0 823f 6d80 7b3f
00000060: e35c 833f 7c30 913f 193c 8d3f 0d7a 8f3f
00000070: 3a2b 9a3f 2a7c 8e3f 1331 873f cb8c 843f
00000080: 6e05 873f 3c5d 8d3f 7893 873f c3ac 943f
00000090: 7433 923f b328 893f 27a0 823f 8805 853f
000000a0: 934e 883f 8328 8c3f 34d3 8b3f b662 843f
000000b0: 4e62 8d3f 3032 7e3f 6738 843f b92e 833f
000000c0: 1bbb 913f d701 823f f4ad 8c3f 172f 823f
000000d0: e1c9 6c3f f73a 8c3f 744b 8d3f 6bb9 8b3f
000000e0: 70be 8c3f 1a90 8f3f ce98 843f 3ca8 803f
000000f0: 95be 933f 76b7 823f 2ed8 873f 6a7d 963f
00000100: 5691 7a3f 8def 833f a086 743f f3e7 843f
00000110: 9cf8 903f e980 833f 8638 873f 277a 893f
00000120: 05f4 823f 74b1 883f 6aa9 793f 52b4 8e3f
00000130: f5e6 8d3f dd22 7d3f b79f 973f ae45 863f
00000140: 392d 923f 4811 963f 5051 923f dd20 893f
00000150: bb97 873f eb3e 833f 1e16 853f 12ad 853f
00000160: 003e 843f 9dc5 833f c185 903f ae64 8b3f
00000170: 1779 8d3f 7eeb 8a3f 33fc 8a3f dbcb 823f
00000180: e8e6 883f 31a4 853f 92fd 923f 8552 843f
00000190: 20d2 803f 7906 8c3f 8588 833f 26f3 8a3f
000001a0: 30b9 8e3f 26db 8f3f 544b 863f c1c0 813f
000001b0: f0d9 843f 500d 8c3f c5f0 823f 30fd 923f
000001c0: b6fd 8d3f 3299 843f 6b3f 8d3f dc5f 833f
000001d0: 6ca5 833f 0899 843f 5a31 883f 9673 883f
000001e0: 813a 863f bd7d 8b3f 40f5 883f d08a 903f
000001f0: 7ba5 903f 02fe 863f b08a 893f c0bc 893f

shared.5.bias f4 [128]
-0.06784852 0.064071424 0.015097052 -0.023101488 0.017193794 -0.019196065 0.04386009 0.015877401
0.03761775 -0.01393834 0.012063599 0.0687865 0.038471006 0.02424603 0.0076213726 0.046034012
0.061951447 0.025593972 0.0015989403 -0.0277351 0.031220833 0.074627124 0.0035731965 -0.011794367
-0.010482732 0.06643132 0.039759908 0.08710763 0.042618413 0.06169642 0.024282325 0.035031043
0.07046363 0.08191814 0.034219496 0.07023111 0.035069138 0.048675135 0.0130028995 0.044809204
-0.003725387 0.0071950853 0.08596213 0.034444027 0.0016269238 0.0006148858 0.0041849418 0.03548291
0.07917917 0.08079298 0.060880423 0.0016611986 -0.09344358 -0.00023165537 0.024079345 0.059084788
-0.0041648033 0.057405047 -0.010285118 -0.020789616 0.045377128 0.0071303337 0.031733137 0.03766393
0.06330409 0.06423499 -0.09810352 0.02455646 0.06908064 0.002153511 0.010179864 0.039466195
0.008105777 -0.004342595 -0.049850125 0.063300505 0.073520735 0.006294984 0.06109697 0.033116784
0.05566824 0.026752574 0.003361907 0.04395834 0.0365094 -0.013010927 0.04344966 0.012969749
0.021219237 0.01388095 0.05424014 0.07906377 0.026493696 0.018148677 0.0062588328 0.02827251
0.069196545 -0.0026669332 0.044467933 -0.048694417 0.025016611 0.05676647 0.032220773 0.07613964
0.038579077 0.056967307 0.033655014 -0.05999994 0.02150756 0.06443401 -0.008919913 0.07183128
0.06350928 0.020039666 0.059082463 -0.018001704 0.045374993 -0.0193642 0.031432778 0.035867177
0.026807778 0.02042289 0.07730038 -0.0074960142 0.031629696 0.03324184 0.059317347 0.03646037
00000000: 2af4 8abd e137 833d a059 773c 553f bdbc
00000010: 00da 8c3c 1141 9dbc a3a6 333d 5311 823c
00000020: 1215 1a3d a35d 64bc 67a6 453c f0df 8c3d
00000030: c693 1d3d 9c9f c63c b5bc f93b 298e 3c3d
00000040: cdc0 7d3d 73aa d13c 8993 d13a b834 e3bc
00000050: d5c2 ff3c 1bd6 983d 4a2c 6a3b 293d 41bc
00000060: c4bf 2bbc 250d 883d 49db 223d 7c65 b23d
00000070: a590 2e3d 63b5 7c3d baeb c63c b67c 0f3d
00000080: 3c4f 903d b3c4 a73d be29 0c3d 54d5 8f3d
00000090: a8a4 0f3d 945f 473d 1d0a 553c db89 373d
000000a0: 9f25 74bb c0c4 eb3b ea0c b03d 2e15 0d3d
000000b0: 813e d53a 4a30 213a d621 893b 8756 113d
000000c0: b028 a23d ca76 a53d c05d 793d 93bc d93a
000000d0: 595f bfbd 84e8 72b9 0c42 c53c e402 723d
000000e0: e778 88bb 8e21 6b3d e982 28bc fc4e aabc
000000f0: 5edd 393d 93a5 e93b 9bfa 013d 7e45 1a3d
00000100: 93a5 813d a28d 833d 80ea c8bd a12a c93c
00000110: 277a 8d3d eb21 0d3b 72c9 263c 4ea7 213d
00000120: 18ce 043c 544c 8ebb a52f 4cbd b2a3 813d
00000130: 0a92 963d 2746 ce3b d140 7a3d 77a5 073d
00000140: 6104 643d 3728 db3c 7153 5c3b a90d 343d
00000150: e18a 153d c82b 55bc 45f8 313d 127f 543c
00000160: f7d3 ad3c ed6c 633c e92a 5e3d 30ec a13d
00000170: 4f09 d93c 89ac 943c e516 cd3b c09b e73c
00000180: ebb6 8d3d b7c7 2ebb 0224 363d cc73 47bd
00000190: a3ef cc3c f583 683d eef9 033d 19ef 9b3d
000001a0: 1805 1e3d 8d56 693d d7d9 093d 7fc2 75bd
000001b0: 9f30 b03c faf5 833d d424 12bc 471c 933d
000001c0: 2711 823d 3a2a a43c 7400 723d 4f78 93bc
000001d0: 21db 393d aca1 9ebc a8bf 003d 76e9 123d
000001e0: fc9b db3c e84d a73c a94f 9e3d 20a1 f5bb
000001f0: 248e 013d 9828 083d bff6 723d 7857 153d

actor.0.weight f4 [64, 128]
0.0018142865 -0.00089433143 -0.0022664894 -0.0011095715 -0.0015594142 -0.00072906615 -0.001256118 -0.0013233791
-0.0016736997 -0.00082580594 -0.002360078 -0.0029380317 -0.0020776216 -0.0017738314 -0.0013646241 -0.0022757167
-0.0008068738 -0.0015899275 -0.0034827546 -0.0024790608 0.001498324 -0.0024436112 -0.0018483212 -0.00058603083
0.0019849641 -0.00054630486 -0.00089889235 -0.00073418254 -0.0010784366 -0.0021558173 -0.0025284728 0.002294175
-0.0032436438 0.0011251799 -0.00022989667 0.0013021377 -0.00026061403 -0.0022395253 -0.0031734025 -0.0012304141
-0.0029440795 -0.0018109871 -0.0028444636 -0.0010619177 -0.0029426655 -0.0019570708 -0.001728423 -0.0013716109
-0.0022339488 -0.0022952983 -0.0032131234 0.0018111075 -0.002246608 -0.001871183 0.0014543943 -0.0018644943
-0.00044802553 -0.0020734249 -0.0026102222 -0.002393787 -0.00020068207 -0.00071061467 0.00250207 -3.2346685e-05
-4.681158e-05 0.0015939994 -0.0033354228 -0.0026620752 -0.0026183096 -0.0016118624 -0.0006313629 -0.0008067883
-0.0017026961 -0.0023246864 -0.000770388 -0.0022365816 -0.0014727783 -0.0016602385 0.0029982226 -0.0019410823
-0.001406264 -0.0021393322 -0.0009718483 -0.00047608864 -0.0016084263 -0.0017526724 0.0020060579 -0.0023024855
-0.0027922683 -0.0007425736 -0.0014988646 -0.0021154573 -0.00095145206 -0.0011741038 -1.7035027e-05 -0.0018411791
-0.002870283 -0.0007774733 -0.0012226709 -0.002944749 -0.0015432198 -0.0010960142 -0.0014537768 -0.0027999438
0.0040523713 -0.0021792443 0.0026241709 -0.0015363502 0.00088722864 -0.0014860723 -0.0012786299 0.0012226789
-0.0008044504 0.0014977818 -0.0013884158 -0.0007568578 -0.0006018917 -0.0011214453 -0.002972347 0.0008509446
-0.00013625271 -0.0016845986 0.00027041318 -0.0021299918 -0.0020088926 0.0012425265 -0.0038597658 -0.003959451
-0.0035236655 -0.0019944182 -0.0016313319 -0.0023702325 -0.0012823299 -0.0023005668 -0.0017483853 0.00055559457
-0.013844898 -0.0048311283 0.0024600867 0.0023594552 -0.008583616 -0.0025515007 -0.0006268826 -0.01103256
-0.011565674 0.0019313137 0.00033668103 -0.000914409 -0.0055255154 0.0065512606 -0.0016166515 -0.0017399058
0.0013033107 -0.011004855 -0.0020409464 -0.012484443 -0.0027459953 -0.004283049 0.0028899305 -0.0026202458
0.0011964251 -0.014092457 -0.0055105635 0.004729604 0.00037193092 -0.0072113215 -0.0025161272 -0.00812763
-0.0015125385 -0.0022189866 -0.0021884039 -0.0040394226 -0.00254333 0.0022104094 -0.0011443342 -0.0035874287
-0.01374515 0.0026728949 -0.00025182535 -0.006351147 -0.001545037 -0.0073477053 0.0026906175 -0.0070154476
0.00014940284 -0.0039715306 -0.0030681984 0.004804444 -0.00866819 -0.008238979 0.003139409 -0.009004625
0.0023616662 -0.002495022 0.0019787159 -0.0013452843 -0.0021881564 -0.012225727 -0.0009678356 -0.0024885354
-0.005343803 -0.0016025039 -0.0030360247 -0.0028090412 -0.013116713 0.000495846 0.002453782 -0.005748409
-0.00027272542 0.0016772946 -0.0008617076 -0.007222774 -0.005041004 -0.006418295 0.0003529572 0.004691904
-0.01160608 -0.003604328 -0.0016900473 -0.012685191 -0.011158687 0.00037162128 -0.0013531501 0.0004162406
-0.0068980996 -0.004067129 -0.00161236 -0.002270644 -0.010529304 -0.012798733 0.0050670207 -0.010268141
-0.00023058239 0.0017253105 -0.005931387 -0.0012531503 0.0012641913 -0.0064420514 0.0030057293 -0.0032251559
-0.0028941177 -0.009850258 -0.009510553 -0.0040597175 -0.011057708 0.0005683886 -0.01391484 0.00084208656
-0.0029394906 -0.0029552951 -0.008873872 -0.0025250183 -0.002492023 -0.0034587122 -0.0032293329 -0.009945877
00000000: 5acd ed3a 9171 6aba 6289 14bb 0b6f 91ba
00000010: 4265 ccba cd1e 3fba 53a4 a4ba 3c75 adba
00000020: 0b60 dbba e67a 58ba 8aab 1abb fe8b 40bb
00000030: b528 08bb e87f e8ba 30dd b2ba 3124 15bb
00000040: 6284 53ba 1d65 d0ba ed3e 64bb bd77 22bb
00000050: 6963 c43a fe24 20bb 5e43 f2ba dd9f 19ba
00000060: 2c16 023b e635 0fba a5a3 6bba 2876 40ba
00000070: 545a 8dba 9d48 0dbb bcb4 25bb df59 163b
00000080: 5093 54bb c67a 933a 6b10 71b9 7eac aa3a
00000090: 06a3 88b9 00c5 12bb dcf8 4fbb d945 a1ba
000000a0: 75f1 40bb a55e edba 2e6a 3abb 0c30 8bba
000000b0: bcd9 40bb 3342 00bb 418c e2ba a0c7 b3ba
000000c0: 7167 12bb b76c 16bb 4493 52bb af62 ed3a
000000d0: d43b 13bb 7c42 f5ba 60a1 be3a 0c62 f4ba
000000e0: f8e4 eab9 4ce2 07bb 4310 2bbb 15e1 1cbb
000000f0: 2f6e 52b9 8b48 3aba c5f9 233b fdab 07b8
00000100: 8d57 44b8 bfed d03a 1c97 5abb 3676 2ebb
00000110: f297 2bbb 2145 d3ba 0c82 25ba a57e 53ba
00000120: 002d dfba c459 18bb ddf3 49ba 9d93 12bb
00000130: 3d0a c1ba 5c9c d9ba d47d 443b ea6b feba
00000140: 6452 b8ba 0a34 0cbb a3c3 7eba 899b f9b9
00000150: d5d1 d2ba edb9 e5ba 1178 033b 4ce5 16bb
00000160: 7dfe 36bb 45a9 42ba 8d75 c4ba 7ca3 0abb
00000170: de6a 79ba 63e4 99ba 71e6 8eb7 b853 f1ba
00000180: 5c1b 3cbb 5acf 4bba 0742 a0ba b1fc 40bb
00000190: dd45 caba 22a8 8fba a88c beba 437f 37bb
000001a0: c1c9 843b a7d1 0ebb 48fa 2b3b 5c5f c9ba
000001b0: e894 683a 50c8 c2ba b397 a7ba 4c42 a03a
000001c0: c1e1 52ba 3851 c43a 81fb b5ba de67 46ba
000001d0: 45c8 1dba 76fd 92ba b5cb 42bb ed11 5f3a
000001e0: 0fdf 0eb9 c0cd dcba 3ec6 8d39 5597 0bbb
000001f0: a0a7 03bb 45dc a23a 20f4 7cbb 48be 81bb
00000200: 4ced 66bb c9b4 02bb 6ad2 d5ba e755 1bbb
00000210: da13 a8ba 1bc5 16bb 132a e5ba 52a5 113a
00000220: b6d5 62bc 714e 9ebb 6839 213b 17a1 1a3b
00000230: 4ca2 0cbc 1437 27bb 6155 24ba e9c1 34bc
00000240: f47d 3dbc 2224 fd3a 9084 b039 f3b4 6fba
00000250: 620f b5bb f5ab d63b d3e5 d3ba 8d0d e4ba
00000260: dad3 aa3a b54d 34bc 66c1 05bb 8d8b 4cbc
00000270: 28f6 33bb d258 8cbb fd64 3d3b 6eb8 2bbb
00000280: 5dd1 9c3a 0ce4 66bc f591 b4bb cbfa 9a3b
00000290: b9ff c239 f34c ecbb 9ce5 24bb c029 05bc
000002a0: 5f40 c6ba 6b6c 11bb 536b 0fbb 225d 84bb
000002b0: ffad 26bb 84dc 103b 7cfd 95ba 111b 6bbb
000002c0: 5633 61bc bc2b 2f3b 6d07 84b9 481d d0bb
000002d0: d782 caba 05c5 f0bb 1255 303b d7e1 e5bb
000002e0: 05a9 1c39 9d23 82bb d413 49bb 996e 9d3b
000002f0: 0605 0ebc c8fc 06bc 8bbe 4d3b 2288 13bc
00000300: 2fc6 1a3b 8683 23bb 58ad 013b 4054 b0ba
00000310: 2c67 0fbb 6a4e 48bc 59b6 7dba b216 23bb
00000320: 121b afbb 1c0b d2ba 0bf8 46bb e417 38bb
00000330: 7be7 56bc a9fb 013a a1cf 203b 265d bcbb
00000340: 96fc 8eb9 abd8 db3a 38e4 61ba 05ad ecbb
00000350: 022f a5bb 9050 d2bb 1d0d b939 8bbe 993b
00000360: 6e27 3ebc 9736 6cbb 9484 ddba 8cd5 4fbc
00000370: edd2 36bc 2ad6 c239 2f5c b1ba de3a da39
00000380: 7409 e2bb 8d45 85bb d355 d3ba 16cf 14bb
00000390: 1a83 2cbc c7b1 51bc 4009 a63b b43b 28bc
000003a0: 7dc8 71b9 d023 e23a 155c c2bb bf40 a4ba
000003b0: 39b3 a53a d817 d3bb c5fb 443b 235d 53bb
000003c0: 3dab 3dbb fa62 21bc 27d2 1bbc 6107 85bb
000003d0: 642b 35bc eaff 143a 12fb 63bc 79bf 5c3a
000003e0: 78a4 40bb a0ad 41bb b863 11bc c77a 25bb
000003f0: 3551 23bb 90ab 62bb 37a3 53bb 08f4 22bc

actor.0.bias f4 [64]
-0.0018011996 -0.011132366 -0.0018004688 -0.0018013483 -0.011240296 -0.0021534134 -0.0038748349 -0.0019950552
-0.0072326357 -0.0064178165 -0.0013169224 -0.0015148367 -0.0011354934 -0.001787606 -0.0018565796 -0.0018013648
-0.0060149035 -0.0020825663 -0.0021111085 -0.0017996357 -0.0018012996 -0.0018012663 -0.0018009666 0.035685826
0.106870286 -0.0015236302 -0.009795753 -0.0018002437 -0.0017400094 -0.012361388 -0.001800566 -0.0015618682
-0.0018005341 -0.0017996454 0.008475437 -0.0018013424 -0.0032518497 -0.0024157912 -0.001801347 -0.0018013596
-0.0068370374 -0.0018011074 0.0078039635 -0.0018013845 -0.0026758015 -0.003142324 -0.0019838356 -0.002463417
-0.0018013711 -0.001800482 -0.0013876469 -0.0060855863 -0.0024101154 -0.011144242 -0.0008508858 -0.0021395697
-0.0062797293 -0.0018010994 -0.0036730254 -0.0027606438 -0.0104872845 -0.0063856286 -0.006043123 -0.0018011152
00000000: 3b16 ecba 8764 36bc b5fd ebba 381b ecba
00000010: 3829 38bc 4820 0dbb f1f0 7dbb 79bf 02bb
00000020: bfff ecbb 8c4c d2bb 959c acba 7c8d c6ba
00000030: d6d4 94ba 1b4e eaba 7958 f3ba c61b ecba
00000040: ab18 c5bb aa7b 08bb 865a 0abb c1e1 ebba
00000050: 9619 ecba 7818 ecba 690e ecba 4d2b 123d
00000060: cfde da3d 8cb4 c7ba 5e7e 20bc 28f6 ebba
00000070: 0711 e4ba 6b87 4abc f800 ecba 9ab7 ccba
00000080: e6ff ebba 14e2 ebba 8fdc 0a3c 051b ecba
00000090: fc1c 55bb 4052 1ebb 2d1b ecba 991b ecba
000000a0: 3a09 e0bb 2313 ecba 64b8 ff3b 6f1c ecba
000000b0: 805c 2fbb 73ef 4dbb 3d03 02bb 4771 21bb
000000c0: fc1b ecba 27fe ebba b4e1 b5ba 9969 c7bb
000000d0: 07f3 1dbb 5796 36bc fb0d 5fba 0638 0cbb
000000e0: 30c6 cdbb de12 ecba 24b7 70bb ebeb 34bb
000000f0: dcd2 2bbc 893e d1bb 6405 c6bb 6613 ecba
