ai_agent/models/master_brain_v3.pt (torch, 459153 bytes, 31 tensors)

input_proj.weight f4 [64, 12]
-0.11333586 0.18291447 -0.16237295 -0.05387947 0.24984926 -0.043798223 -0.09238483 -0.15082768
-0.082664296 0.15978038 -0.10236573 0.1624873 0.28853333 0.12643471 0.25415957 -0.1454122
0.18475288 -0.27647972 -0.07353018 -0.21635775 -0.015972942 0.22602504 -0.046888173 -0.18023482
0.0091649 -0.025362968 0.17061368 0.2517656 0.011843473 -0.19949701 -0.1069053 0.21605021
-0.25406072 0.009771198 0.1530124 -0.07171732 -0.20445937 -0.010743976 -0.20220324 -0.027582645
-0.014989316 0.19076425 -0.08030799 -0.1330754 0.08461574 -0.034559876 -0.2850481 -0.118864685
-0.05298604 0.23814845 0.18124282 0.10439882 -0.17903171 -0.11228834 0.050068766 -0.11184208
0.032450795 -0.17165428 -0.07599284 0.24481618 0.004919201 0.055610865 0.05011642 -0.010947138
-0.079754144 0.114501595 -0.05258514 -0.015226513 0.22436601 0.18818799 -0.12412572 0.082607746
-0.0673269 -0.070552275 -0.2678758 -0.16442263 -0.08863443 0.1514557 0.2174865 0.25970805
-0.042018875 0.20968118 -0.18461284 -0.20867115 -0.23642802 -0.054285333 -0.256051 -0.21635565
-0.19802918 -0.28499794 -0.100693375 0.16802576 0.0014390647 -0.17011589 -0.017809004 0.18158033
0.20347351 0.2035676 0.08518967 -0.07234855 -0.16595493 0.26906377 -0.130769 -0.1658901
-0.024937391 -0.21004051 0.053134263 0.26287436 -0.20568857 0.23927516 0.22721398 0.2880724
-0.09571123 -0.025636643 0.047536433 0.049946636 -0.04571587 -0.019675255 0.14188954 0.24464613
-0.16111076 0.11008838 -0.22886962 -0.23802176 0.26638865 -0.17002927 0.23863989 0.18197718
-0.21685106 0.06288171 -0.06519331 -0.18409318 0.28273076 0.09081113 -0.027874261 0.016417772
-0.11363678 0.15256271 0.2071718 -0.15069538 -0.28698945 0.18996727 -0.22049958 -0.18761346
0.014968067 0.09385812 -0.16003446 -0.11947341 -0.08367139 -0.061317578 -0.26287258 -0.06771384
0.23794633 -0.034763962 0.10602 0.14131159 0.023813635 0.0138776 0.05104062 0.0007035136
-0.031822026 0.0039620697 0.19832101 0.23240298 -0.107851684 -0.17894372 0.10312164 -0.13086869
-0.27092594 -0.00018063188 -0.13558093 -0.19565177 -0.1904372 0.08250198 0.008546144 -0.24672718
0.1412192 0.15725303 -0.12573943 0.16520643 0.12265694 0.07326782 0.26030672 -0.06113237
-0.032660037 0.2644416 -0.26726317 0.0022613704 0.16735417 0.24240172 0.20888832 -0.25289565
0.11176625 0.1309861 0.23341596 0.106664985 0.27367812 0.15226361 -0.155698 -0.011452854
0.036749303 0.20932722 0.050751925 0.1963453 -0.248985 0.20331073 -0.28403157 -0.014444023
-0.19088526 -0.14165527 0.2292105 0.13623154 0.03957385 0.23527288 0.1637255 -0.21602295
0.082960635 -0.13353737 -0.2443184 -0.2673284 -0.22063845 0.02287829 0.07324085 0.13273355
-0.10939942 0.123325616 0.050657272 -0.25802147 -0.17094871 -0.2569637 -0.039679796 -0.01808703
0.27571613 -0.14531568 -0.08718555 0.27643102 -0.10235469 -0.24247566 0.16366428 -0.004654914
0.0007176995 0.18926701 0.046245486 -0.11056565 -0.28264832 0.22694427 0.07161048 -0.023317456
0.20176744 -0.09282717 -0.2700662 0.16829878 -0.19860372 0.17859977 -0.14180586 0.005552441
00000000: a21c e8bd ee4d 3b3e 1845 26be b8b0 5cbd
00000010: 7cd8 7f3e c465 33bd 4234 bdbd 9272 1abe
00000020: e64b a9bd 789d 233e 20a5 d1bd 1263 263e
00000030: a4ba 933e 1a78 013e 3421 823e f0e6 14be
00000040: dc2f 3d3e c08e 8dbe fe96 96bd e38c 5dbe
00000050: b0d9 82bc 1c73 673e d00d 40bd 7a8f 38be
00000060: 6028 163c 00c6 cfbc 5ab5 2e3e 6ce7 803e
00000070: 200b 423c f248 4cbe 2af1 dabd 443c 5d3e
00000080: 3f14 82be 6017 203c 48af 1c3e 88e0 92bd
00000090: cc5d 51be 8007 30bc 5e0e 4fbe 00f5 e1bc
000000a0: c095 75bc b457 433e 8478 a4bd eb44 08be
000000b0: 044b ad3d a88e 0dbd d3f1 91be 546f f3bd
000000c0: e407 59bd 30dd 733e b897 393e 0ccf d53d
000000d0: 1754 37be 6ef7 e5bd e814 4d3d 760d e5bd
000000e0: 20eb 043d 24c6 2fbe 22a2 9bbd 18b1 7a3e
000000f0: 4031 a13b 38c8 633d e046 4d3d a05b 33bc
00000100: 2456 a3bd d07f ea3d 8463 57bd a078 79bc
00000110: 34c0 653e 5ab4 403e a035 febd 402e a93d
00000120: b0e2 89bd b67d 90bd 0427 89be 685e 28be
00000130: f885 b5bd 3417 1b3e c8b4 5e3e 74f8 843e
00000140: fc1b 2cbd aab6 563e 260b 3dbe e4ad 55be
00000150: 301a 72be 4c5a 5ebd 1e19 83be 568c 5dbe
00000160: 29c8 4abe 40eb 91be 5438 cebd f20e 2c3e
00000170: 009f bc3a dc32 2ebe 30e4 91bc 32f0 393e
00000180: 5c5b 503e 0674 503e ec77 ae3d 7a2b 94bd
00000190: 17f0 29be bac2 893e 4fe8 05be 18df 29be
000001a0: 8049 ccbc dc14 57be 50a3 593d 7897 863e
000001b0: 06a0 52be 8c04 753e c8aa 683e 3a7e 933e
000001c0: 4004 c4bd f003 d2bc 90b5 423d d894 4c3d
000001d0: 9040 3bbd 002e a1bc 7e4b 113e 8484 7a3e
000001e0: 38fa 24be 0476 e13d cc5c 6abe fabb 73be
000001f0: 1864 883e 271c 2ebe 045e 743e 3a58 3a3e
00000200: 340e 5ebe 20c8 803d 1284 85bd ec82 3cbe
00000210: 16c2 903e 30fb b93d 9058 e4bc 907e 863c
00000220: 66ba e8bd 6639 1c3e d824 543e e44f 1abe
00000230: 48f0 92be c886 423e a4ca 61be be1d 40be
00000240: a03c 753c b038 c03d 13e0 23be 7aae f4bd
00000250: e85b abbd 2428 7bbd 3c97 86be 8ead 8abd
00000260: 34a8 733e a864 0ebd 0421 d93d fcb3 103e
00000270: d014 c33c e05e 633c f80f 513d 006c 383a
00000280: d057 02bd 40d4 813b aa14 4b3e 0cfb 6d3e
00000290: 58e1 dcbd 063d 37be 7031 d33d 7102 06be
000002a0: ceb6 8abe 0068 3db9 bad5 0abe f058 48be
000002b0: f801 43be ccf6 a83d 2005 0c3c 0da6 7cbe
000002c0: c49b 103e f006 213e d6c1 00be e02b 293e
000002d0: 9033 fb3d 700d 963d ec46 853e f065 7abd
000002e0: 88c6 05bd e464 873e b8d6 88be 8033 143b
000002f0: e45e 2b3e 2838 783e d2e6 553e 8a7b 81be
00000300: b4e5 e43d 3821 063e 9804 6f3e 2c73 da3d
00000310: 8a1f 8c3e feea 1b3e 4c6f 1fbe c0a4 3bbc
00000320: 7086 163d e059 563e 40e1 4f3d be0e 493e
00000330: edf5 7ebe b030 503e 966c 91be a0a6 6cbc
00000340: 6d77 43be 140e 11be 28b6 6a3e 4880 0b3e
00000350: 3018 223d 60eb 703e a8a7 273e 1f35 5dbe
00000360: 44e7 a93d 05be 08be 9a2e 7abe 45df 88be
00000370: 0cef 61be 406b bb3c 4cff 953d 4eeb 073e
00000380: ce0c e0bd 2492 fc3d 007e 4f3d 641b 84be
00000390: 2e0d 2fbe bf90 83be 4887 22bd 402b 94bc
000003a0: aa2a 8d3e a2cd 14be 568e b2bd 5e88 8d3e
000003b0: 569f d1bd 8a4b 78be 9c97 273e 4088 98bb
000003c0: 0024 3c3a 36cf 413e e86b 3d3d 3e70 e2bd
000003d0: 48b7 90be 1464 683e 84a8 923d 4004 bfbc
000003e0: 209c 4e3e 2c1c bebd 1e46 8abe 8456 2c3e
000003f0: c65e 4bbe dce2 363e 8e35 11be 40f1 b53b

input_proj.bias f4 [64]
-0.06320788 -0.021387428 0.029812366 -0.06296216 -0.2262168 -0.10174115 0.006809652 -0.07579292
-0.11182143 -0.10080622 -0.22542098 -0.24065644 0.17876664 -0.12447418 0.13789675 -0.25911015
-0.09824777 0.05764857 0.13625085 0.0682438 0.08021468 -0.18648988 0.1383515 0.052238494
0.10267863 0.18122801 0.2655856 -0.23763396 -0.20562734 0.09322938 -0.016249925 -0.1509666
0.11495185 0.2124852 0.16395396 -0.14542952 -0.15410872 -0.016249567 -0.041547 0.22210473
-0.09347671 0.14288542 0.07038903 0.26710212 0.0568572 0.2290957 0.06429443 -0.00956583
-0.1322464 0.091092885 0.007747978 -0.12818515 0.23070157 0.020907223 -0.02123645 -0.10307963
-0.18738496 -0.12274577 -0.031543463 0.005929321 -0.2092596 0.15714148 -0.14476693 -0.0139223635
00000000: 2273 81bd b034 afbc 1039 f43c 4ef2 80bd
00000010: 60a5 67be aa5d d0bd 8023 df3b 5239 9bbd
00000020: a202 e5bd 7e73 cebd c2d4 66be a46e 76be
00000030: 9a0e 373e 52ec febd ce34 0d3e 16aa 84be
00000040: 2036 c9bd e820 6c3d 5885 0b3e 68c3 8b3d
00000050: 9847 a43d 34f7 3ebe 04ac 0d3e 08f8 553d
00000060: 2c49 d23d d693 393e d6fa 873e 5156 73be
00000070: f98f 52be 0cef be3d 901e 85bc fd96 1abe
00000080: e06b eb3d b895 593e 8ce3 273e 7aeb 14be
00000090: adce 1dbe d01d 85bc 302d 2abd 6c6f 633e
000000a0: b870 bfbd 8e50 123e 2028 903d 9cc1 883e
000000b0: 18e3 683d 1098 6a3e ccac 833d 00ba 1cbc
000000c0: 9a6b 07be e88e ba3d c0e2 fd3b f842 03be
000000d0: 083d 6c3e a045 ab3c 10f8 adbc 6a1b d3bd
000000e0: d8e1 3fbe 2262 fbbd b833 01bd c04a c23b
000000f0: 2648 56be b2e9 203e c83d 14be a01a 64bc

pos_encoder.pe f4 [1, 100, 64]
0.0 1.0 0.0 1.0 0.0 1.0 0.0 1.0
0.0 1.0 0.0 1.0 0.0 1.0 0.0 1.0
0.0 1.0 0.0 1.0 0.0 1.0 0.0 1.0
0.0 1.0 0.0 1.0 0.0 1.0 0.0 1.0
0.0 1.0 0.0 1.0 0.0 1.0 0.0 1.0
0.0 1.0 0.0 1.0 0.0 1.0 0.0 1.0
0.0 1.0 0.0 1.0 0.0 1.0 0.0 1.0
0.0 1.0 0.0 1.0 0.0 1.0 0.0 1.0
0.84147096 0.54030234 0.68156135 0.731761 0.53316844 0.8460091 0.40930894 0.91239583
0.3109836 0.9504153 0.23492105 0.9720145 0.17689219 0.9842302 0.13295726 0.99112177
0.099833414 0.9950042 0.07491915 0.9971896 0.05620449 0.9984193 0.04215715 0.999111
0.031617504 0.99950004 0.023711512 0.99971884 0.017781857 0.99984187 0.013334819 0.99991107
0.009999833 0.99995 0.0074988706 0.99997187 0.0056233825 0.9999842 0.0042169513 0.9999911
0.0031622713 0.999995 0.0023713715 0.9999972 0.0017782785 0.99999845 0.0013335211 0.9999991
0.0009999998 0.9999995 0.000749894 0.9999997 0.0005623411 0.9999998 0.00042169637 0.99999994
0.00031622782 0.99999994 0.00023713727 1.0 0.00017782794 1.0 0.00013335208 1.0
0.9092974 -0.41614684 0.99748 0.070948265 0.9021307 0.43146282 0.74690354 0.66493237
0.5911271 0.8065784 0.45669332 0.8896242 0.34820527 0.93741834 0.26355368 0.96464473
0.19866931 0.9800666 0.1494172 0.98877424 0.1122313 0.9936821 0.08423935 0.99644554
0.063203394 0.9980007 0.04740969 0.9988755 0.03555809 0.9993676 0.026667267 0.99964434
0.019998666 0.9998 0.014997319 0.9998875 0.011246587 0.99993676 0.008433828 0.9999644
0.006324511 0.99998003 0.00474273 0.99998873 0.0035565514 0.9999937 0.0026670396 0.9999964
0.0019999985 0.99999803 0.0014997876 0.99999887 0.0011246821 0.99999934 0.0008433926 0.99999964
0.0006324556 0.9999998 0.0004742745 0.9999999 0.00035565588 0.99999994 0.00026670416 1.0
0.14112 -0.9899925 0.7782725 -0.6279267 0.9932532 -0.11596616 0.95363444 0.3009673
0.8126489 0.58275366 0.652904 0.7574407 0.5085361 0.86104065 0.3894703 0.92103904
0.2955202 0.9553365 0.22307542 0.9748012 0.16790329 0.9858035 0.12617177 0.9920084
0.094726086 0.99550337 0.071081206 0.9974705 0.053323083 0.9985773 0.039994974 0.99919987
0.0299955 0.99955004 0.022494925 0.999747 0.016869437 0.9998577 0.012650555 0.99991995
0.009486687 0.999955 0.0071140616 0.9999747 0.005334813 0.99998575 0.0040005534 0.999992
0.0029999954 0.9999955 0.0022496805 0.9999975 0.0016870227 0.99999857 0.0012650888 0.9999992
0.00094868336 0.9999996 0.00071141176 0.99999976 0.0005334838 0.9999999 0.00040005625 0.99999994
00000000: 0000 0000 0000 803f 0000 0000 0000 803f
00000010: 0000 0000 0000 803f 0000 0000 0000 803f
00000020: 0000 0000 0000 803f 0000 0000 0000 803f
00000030: 0000 0000 0000 803f 0000 0000 0000 803f
00000040: 0000 0000 0000 803f 0000 0000 0000 803f
00000050: 0000 0000 0000 803f 0000 0000 0000 803f
00000060: 0000 0000 0000 803f 0000 0000 0000 803f
00000070: 0000 0000 0000 803f 0000 0000 0000 803f
00000080: 0000 0000 0000 803f 0000 0000 0000 803f
00000090: 0000 0000 0000 803f 0000 0000 0000 803f
000000a0: 0000 0000 0000 803f 0000 0000 0000 803f
000000b0: 0000 0000 0000 803f 0000 0000 0000 803f
000000c0: 0000 0000 0000 803f 0000 0000 0000 803f
000000d0: 0000 0000 0000 803f 0000 0000 0000 803f
000000e0: 0000 0000 0000 803f 0000 0000 0000 803f
000000f0: 0000 0000 0000 803f 0000 0000 0000 803f
00000100: a46a 573f 4151 0a3f ce7a 2e3f b054 3b3f
00000110: ba7d 083f 0d94 583f f190 d13e c692 693f
00000120: 3e39 9f3e 6b4e 733f 258f 703e f1d5 783f
00000130: 3a23 353e 83f6 7b3f f325 083e 28ba 7d3f
00000140: 7675 cc3d 98b8 7e3f 366f 993d d147 7f3f
00000150: ae36 663d 6898 7f3f faac 2c3d bdc5 7f3f
00000160: 5b81 013d 3cdf 7f3f a53e c23c 93ed 7f3f
00000170: 42ab 913c a3f5 7f3f 497a 5a3c 2cfa 7f3f
00000180: 57d6 233c b9fc 7f3f 16b9 f53b 28fe 7f3f
00000190: 5a44 b83b f7fe 7f3f 5a2e 8a3b 6bff 7f3f
000001a0: 1c3e 4f3b acff 7f3f 0369 1b3b d1ff 7f3f
000001b0: 2015 e93a e6ff 7f3f 8bc9 ae3a f1ff 7f3f
000001c0: 6d12 833a f8ff 7f3f 8994 443a fbff 7f3f
000001d0: 136a 133a fdff 7f3f 2117 dd39 ffff 7f3f
000001e0: 61cb a539 ffff 7f3f 0da8 7839 0000 803f
000001f0: 5377 3a39 0000 803f 6dd4 0b39 0000 803f
00000200: b7c7 683f 3311 d5be d95a 7f3f 534d 913d
00000210: 0af2 663f b2e8 dc3e 1235 3f3f 0239 2a3f
00000220: 1b54 173f ec7b 4e3f b5d3 e93e 69be 633f
00000230: f647 b23e a6fa 6f3f 82f0 863e f5f2 763f
00000240: f86f 4b3e a5e5 7a3f d300 193e 4f20 7d3f
00000250: 86d9 e53d f361 7e3f ae85 ac3d 0e17 7f3f
00000260: c870 813d f97c 7f3f aa30 423d 4eb6 7f3f
00000270: 5ca5 113d 8ed6 7f3f 5075 da3c b1e8 7f3f
00000280: 3ed4 a33c e5f2 7f3f 51b7 753c a1f8 7f3f
00000290: 9b43 383c dbfb 7f3f 0a2e 0a3c abfd 7f3f
000002a0: d83d cf3b b1fe 7f3f e768 9b3b 43ff 7f3f
000002b0: 0815 693b 96ff 7f3f 80c9 2e3b c4ff 7f3f
000002c0: 6812 033b dfff 7f3f 8594 c43a edff 7f3f
000002d0: 126a 933a f5ff 7f3f 1f17 5d3a faff 7f3f
000002e0: 60cb 253a fdff 7f3f 0ca8 f839 feff 7f3f
000002f0: 5377 ba39 ffff 7f3f 6dd4 8b39 0000 803f
00000300: c381 103e 2670 7dbf de3c 473f cebf 20bf
00000310: d745 7e3f ab7f edbd 6321 743f 6318 9a3e
00000320: c209 503f 582f 153f b724 273f a2e7 413f
00000330: 6c2f 023f 296d 5c3f a768 c73e 37c9 6b3f
00000340: 6c4e 973e ef90 743f e26d 643e 928c 793f
00000350: d7ee 2b3e 9e5d 7c3f 2c33 013e 43f4 7d3f
00000360: c0ff c13d 4fd9 7e3f 0693 913d 3a5a 7f3f
00000370: 4e69 5a3d c3a2 7f3f c5d1 233d 90cb 7f3f
00000380: 1fb9 f53c 83e2 7f3f 4747 b83c 6bef 7f3f
00000390: c631 8a3c adf6 7f3f 4644 4f3c c1fa 7f3f
000003a0: 0d6e 1b3c 0dfd 7f3f 131d e93b 58fe 7f3f
000003b0: a8cf ae3b 11ff 7f3f 1317 833b 7aff 7f3f
000003c0: 929b 443b b5ff 7f3f 606f 133b d6ff 7f3f
000003d0: 171f dd3a e8ff 7f3f 56d1 a53a f3ff 7f3f
000003e0: 10b1 783a f9ff 7f3f 097e 3a3a fcff 7f3f
000003f0: 7ed9 0b3a feff 7f3f a4be d139 ffff 7f3f

transformer.layers.0.self_attn.in_proj_weight f4 [192, 64]
-0.050506666 0.021732062 -0.15099102 0.15179591 0.0037323087 0.013703942 -0.12162255 -0.11791682
-0.09848486 0.11392279 0.010657117 -0.08707288 -0.0066898763 -0.02011767 0.11289732 -0.0907232
-0.11084008 0.014344126 -0.02182512 -0.089794375 0.012315869 0.04515411 0.1485454 -0.009017646
0.06409174 -0.0033480972 -0.12966533 -0.06873257 -0.14664413 0.15061004 0.07239653 0.11751567
-0.10067816 -0.0036300272 0.017311439 -0.0694349 -0.10756253 0.063751474 -0.0030184835 -0.050209828
-0.13542555 -0.016924873 9.75579e-05 0.10830395 -0.093296155 0.05954975 -0.12507686 0.051238507
0.024198443 0.002784863 -0.070600264 -0.113076456 0.01649198 -0.057912216 0.13146038 -0.11735259
-0.11252569 -0.014917433 0.014206111 -0.12099064 -0.0938348 -0.019724935 -0.07839754 -0.1461916
0.029976279 0.016435802 0.128531 -0.00986284 0.016487256 -0.068905234 -0.07175526 -0.04581038
-0.12616727 0.1327192 0.066876456 0.11520909 -0.0011109263 0.08978213 -0.15105398 0.025823906
-0.08000349 -0.12945546 0.15084584 -0.10770273 0.034062997 -0.028279148 -0.016308725 0.14923061
-0.1401982 0.04044418 -0.11711358 0.0713523 -0.10052177 0.13906775 0.064380676 0.13572355
-0.13698824 -0.10976833 0.1045977 -0.11081682 -0.14134529 -0.03290849 -0.031575903 -0.022250816
-0.024658412 -0.11733788 -0.03056483 -0.09110457 -0.08344671 0.09066534 -0.0071905255 0.11397381
0.010382876 -0.090454355 0.039963007 -0.009406894 -0.01227437 0.03283602 0.12916704 -0.0637737
0.12444942 0.08889957 -0.09755625 0.13945676 -0.012207165 -0.05596473 0.0051088184 -0.11085883
-0.11036995 0.0015618205 0.0344591 -0.0084478855 0.033267677 0.039467424 0.1316949 0.15044652
0.10948585 -0.092144355 -0.07288102 -0.024863034 -0.1023941 -0.14278819 0.09119153 0.0718091
-0.013138413 -0.091818646 -0.124389015 0.072972834 -0.043583915 -0.06578906 -0.089390025 -0.14654066
-0.071703136 0.040644214 0.042245895 -0.13067546 0.06750131 0.13974904 -0.011454046 0.1412461
-0.053723373 0.10084869 0.054836288 -0.095483944 -0.03860169 0.0069835484 -0.08489276 0.04254152
-0.10005434 0.020495623 -0.0656218 0.1336257 0.09441602 -0.10605733 0.11477287 0.078725055
-0.002908364 -0.054091662 -0.026018575 0.044159815 0.09638499 0.106676474 0.11247961 -0.0946379
-0.019482806 -0.08658967 -0.10697621 0.04576181 0.13624628 0.05515088 0.12958683 -0.0597054
-0.140971 0.07445668 -0.09166372 -0.113582276 -0.08099753 -0.09919229 0.110614434 -0.0164098
0.06809157 -0.07401125 0.104130074 -0.083568454 0.14214925 0.05106005 -0.14511937 0.14797322
0.060208037 -0.03711155 0.07599516 -0.12094388 0.033253342 -0.01642339 0.07398307 0.123530045
0.12826245 -0.049128927 0.000491336 0.027918562 0.034200132 0.015346825 0.034359977 -0.13110517
0.13713105 0.034856394 -0.03497289 -0.011223555 0.10671909 -0.118921965 0.086863965 0.017169937
0.021870583 0.028912261 0.011627868 0.121601716 0.09240891 0.024597198 0.14661004 -0.020769313
-0.14985298 0.09877516 0.1356477 0.046039745 0.0093095 -0.026764393 -0.11652814 -0.06727757
0.11975394 -0.13626462 0.13785373 -0.044878215 -0.11522307 0.118064985 0.11341943 0.13896425
00000000: 14e0 4ebd 7007 b23c 649d 1abe 6370 1b3e
00000010: c099 743b 8086 603c 3e15 f9bd 607e f1bd
00000020: 6eb2 c9bd 5a50 e93d 309b 2e3c 4453 b2bd
00000030: c036 dbbb d0cd a4bc b636 e73d 16cd b9bd
00000040: 2000 e3bd a003 6b3c 98ca b2bc 1de6 b7bd
00000050: 80c8 493c 84f3 383d 491c 183e c0be 13bc
00000060: 8842 833d c06b 5bbb fdc6 04be a9c3 8cbd
00000070: e129 16be 8539 1a3e a244 943d 0eac f03d
00000080: 5a30 cebd c0e5 6dbb b8d0 8d3c e333 8ebd
00000090: be49 dcbd 2290 823d c0d1 45bb d2a8 4dbd
000000a0: ffac 0abe 08a6 8abc 0098 cc38 76ce dd3d
000000b0: 0e12 bfbd 70ea 733d 2614 00be 78df 513d
000000c0: d03b c63c 4082 363b df96 90bd a194 e7bd
000000d0: 301a 873c 5c35 6dbd 8d9d 063e 8e56 f0bd
000000e0: de73 e6bd 4068 74bc c0c0 683c f1c9 f7bd
000000f0: 762c c0bd 3096 a1bc e48e a0bd 40b3 15be
00000100: d090 f53c 60a4 863c a19d 033e c097 21bc
00000110: 4810 873c 301e 8dbd 6cf4 92bd aaa3 3bbd
00000120: fe31 01be 8be7 073e 86f6 883d bef2 eb3d
00000130: 809c 91ba b2df b73d e5ad 1abe a88c d33c
00000140: dfd8 a3bd f98f 04be 5577 1a3e 4093 dcbd
00000150: a485 0b3d aca9 e7bc e099 85bc e9cf 183e
00000160: 1e90 0fbe cca8 253d 3fd9 efbd 2821 923d
00000170: 5cde cdbd c767 0e3e 04da 833d 1dfb 0a3e
00000180: a546 0cbe 38ce e0bd 5237 d63d eef3 e2bd
00000190: d2bc 10be 0ecb 06bd bc55 01bd 5847 b6bc
000001a0: 7000 cabc d84e f0bd 1863 fabc 0895 babd
000001b0: 1ce6 aabd c0ae b93d 809e ebbb 1a6b e93d
000001c0: f01c 2a3c 2240 b9bd 40b0 233d 601f 1abc
000001d0: 701a 49bc 107f 063d 5d44 043e c99b 82bd
000001e0: 56df fe3d fa10 b63d 92cb c7bd c1cd 0e3e
000001f0: 9000 48bc 463b 65bd e067 a73b f409 e3bd
00000200: a409 e2bd 00b6 cc3a fc24 0d3d 0069 0abc
00000210: b043 083d 98a8 213d 07db 063e a70e 1a3e
00000220: 1e3a e03d 2eb6 bcbd a542 95bd 90ad cbbc
00000230: ffb3 d1bd 1137 12be a0c2 ba3d a610 933d
00000240: 8042 57bc 6a0b bcbd abbf febd c872 953d
00000250: 0c85 32bd 6abc 86bd 1e12 b7bd c10e 16be
00000260: 18d9 92bd 8c7a 263d 080a 2d3d cacf 05be
00000270: 203e 8a3d 5f1a 0f3e c0a9 3bbc d1a2 103e
00000280: 0a0d 5cbd c289 ce3d 049c 603d 168d c3bd
00000290: ce1c 1ebd 40d6 e43b 41dc adbd 0440 2e3d
000002a0: 4ae9 ccbd 70e6 a73c b964 86bd 2dd5 083e
000002b0: 305d c13d 9634 d9bd 0a0e eb3d 9a3a a13d
000002c0: 409a 3ebb 388f 5dbd e824 d5bc ece0 343d
000002d0: 7e65 c53d 3279 da3d b65b e63d 84d1 c1bd
000002e0: 689a 9fbc ed55 b1bd 5816 dbbd bc70 3b3d
000002f0: 2584 0b3e e4e5 613d 69b2 043e a68d 74bd
00000300: b45a 10be be7c 983d 30ba bbbd d39d e8bd
00000310: 08e2 a5bd 5425 cbbd d289 e23d d86d 86bc
00000320: 9873 8b3d 3693 97bd 2642 d53d f025 abbd
00000330: 938f 113e 5824 513d 2c9a 14be 4b86 173e
00000340: b49c 763d 4802 18bd 5aa3 9b3d 6db1 f7bd
00000350: a834 083d 588a 86bc 7084 973d 52fd fc3d
00000360: 3b57 033e 6a3b 49bd 00cd 003a 78b5 e43c
00000370: 7015 0c3d 4071 7b3c 0cbd 0c3d 6f40 06be
00000380: 156c 0c3e 94c5 0e3d bc3f 0fbd 00e3 37bc
00000390: 8a8f da3d 5c8d f3bd bce5 b13d f8a7 8c3c
000003a0: f029 b33c 68d9 ec3c d082 3e3c 520a f93d
000003b0: e240 bd3d 1080 c93c f120 163e 6824 aabc
000003c0: 0f73 19be a24a ca3d 3be7 0a3e 2c94 3c3d
000003d0: e086 183c 0041 dbbc 4ea6 eebd d3c8 89bd
000003e0: 8e41 f53d f488 0bbe 8729 0d3e 38d2 37bd
000003f0: 13fa ebbd 0ecc f13d 7248 e83d a54c 0e3e

transformer.layers.0.self_attn.in_proj_bias f4 [192]
0.0 0.0 0.0 0.0 0.0 0.0 0.0 0.0
0.0 0.0 0.0 0.0 0.0 0.0 0.0 0.0
0.0 0.0 0.0 0.0 0.0 0.0 0.0 0.0
0.0 0.0 0.0 0.0 0.0 0.0 0.0 0.0
0.0 0.0 0.0 0.0 0.0 0.0 0.0 0.0
0.0 0.0 0.0 0.0 0.0 0.0 0.0 0.0
0.0 0.0 0.0 0.0 0.0 0.0 0.0 0.0
0.0 0.0 0.0 0.0 0.0 0.0 0.0 0.0
0.0 0.0 0.0 0.0 0.0 0.0 0.0 0.0
0.0 0.0 0.0 0.0 0.0 0.0 0.0 0.0
0.0 0.0 0.0 0.0 0.0 0.0 0.0 0.0
0.0 0.0 0.0 0.0 0.0 0.0 0.0 0.0
0.0 0.0 0.0 0.0 0.0 0.0 0.0 0.0
0.0 0.0 0.0 0.0 0.0 0.0 0.0 0.0
0.0 0.0 0.0 0.0 0.0 0.0 0.0 0.0
0.0 0.0 0.0 0.0 0.0 0.0 0.0 0.0
0.0 0.0 0.0 0.0 0.0 0.0 0.0 0.0
0.0 0.0 0.0 0.0 0.0 0.0 0.0 0.0
0.0 0.0 0.0 0.0 0.0 0.0 0.0 0.0
0.0 0.0 0.0 0.0 0.0 0.0 0.0 0.0
0.0 0.0 0.0 0.0 0.0 0.0 0.0 0.0
0.0 0.0 0.0 0.0 0.0 0.0 0.0 0.0
0.0 0.0 0.0 0.0 0.0 0.0 0.0 0.0
0.0 0.0 0.0 0.0 0.0 0.0 0.0 0.0
00000000: 0000 0000 0000 0000 0000 0000 0000 0000
00000010: 0000 0000 0000 0000 0000 0000 0000 0000
00000020: 0000 0000 0000 0000 0000 0000 0000 0000
00000030: 0000 0000 0000 0000 0000 0000 0000 0000
00000040: 0000 0000 0000 0000 0000 0000 0000 0000
00000050: 0000 0000 0000 0000 0000 0000 0000 0000
00000060: 0000 0000 0000 0000 0000 0000 0000 0000
00000070: 0000 0000 0000 0000 0000 0000 0000 0000
00000080: 0000 0000 0000 0000 0000 0000 0000 0000
00000090: 0000 0000 0000 0000 0000 0000 0000 0000
000000a0: 0000 0000 0000 0000 0000 0000 0000 0000
000000b0: 0000 0000 0000 0000 0000 0000 0000 0000
000000c0: 0000 0000 0000 0000 0000 0000 0000 0000
000000d0: 0000 0000 0000 0000 0000 0000 0000 0000
000000e0: 0000 0000 0000 0000 0000 0000 0000 0000
000000f0: 0000 0000 0000 0000 0000 0000 0000 0000
00000100: 0000 0000 0000 0000 0000 0000 0000 0000
00000110: 0000 0000 0000 0000 0000 0000 0000 0000
00000120: 0000 0000 0000 0000 0000 0000 0000 0000
00000130: 0000 0000 0000 0000 0000 0000 0000 0000
00000140: 0000 0000 0000 0000 0000 0000 0000 0000
00000150: 0000 0000 0000 0000 0000 0000 0000 0000
00000160: 0000 0000 0000 0000 0000 0000 0000 0000
00000170: 0000 0000 0000 0000 0000 0000 0000 0000
00000180: 0000 0000 0000 0000 0000 0000 0000 0000
00000190: 0000 0000 0000 0000 0000 0000 0000 0000
000001a0: 0000 0000 0000 0000 0000 0000 0000 0000
000001b0: 0000 0000 0000 0000 0000 0000 0000 0000
000001c0: 0000 0000 0000 0000 0000 0000 0000 0000
000001d0: 0000 0000 0000 0000 0000 0000 0000 0000
000001e0: 0000 0000 0000 0000 0000 0000 0000 0000
000001f0: 0000 0000 0000 0000 0000 0000 0000 0000
00000200: 0000 0000 0000 0000 0000 0000 0000 0000
00000210: 0000 0000 0000 0000 0000 0000 0000 0000
00000220: 0000 0000 0000 0000 0000 0000 0000 0000
00000230: 0000 0000 0000 0000 0000 0000 0000 0000
00000240: 0000 0000 0000 0000 0000 0000 0000 0000
00000250: 0000 0000 0000 0000 0000 0000 0000 0000
00000260: 0000 0000 0000 0000 0000 0000 0000 0000
00000270: 0000 0000 0000 0000 0000 0000 0000 0000
00000280: 0000 0000 0000 0000 0000 0000 0000 0000
00000290: 0000 0000 0000 0000 0000 0000 0000 0000
000002a0: 0000 0000 0000 0000 0000 0000 0000 0000
000002b0: 0000 0000 0000 0000 0000 0000 0000 0000
000002c0: 0000 0000 0000 0000 0000 0000 0000 0000
000002d0: 0000 0000 0000 0000 0000 0000 0000 0000
000002e0: 0000 0000 0000 0000 0000 0000 0000 0000
000002f0: 0000 0000 0000 0000 0000 0000 0000 0000

transformer.layers.0.self_attn.out_proj.weight f4 [64, 64]
-0.09333718 -0.07183087 0.109829456 -0.079355806 0.068118095 -0.09924683 0.10638167 -0.0031930208
0.10184218 0.036785185 -0.05821441 0.06828748 0.07773204 -0.076818734 0.10190673 -0.08791627
-0.034304008 0.0010674596 -0.10767588 0.12312712 -0.020094737 -0.05444503 0.03920497 0.0079692155
0.08874725 0.021003798 -0.0666814 -0.0062384605 0.015950292 -0.09301415 0.08929743 0.12258658
0.025815263 0.09464131 -0.08092487 0.08812697 0.07898137 0.1174541 0.0961186 0.02893284
-0.11824021 0.05495183 0.09532599 0.06561151 0.086324915 0.0027581155 -0.04509999 -0.04702173
-0.12137167 -0.09729451 -0.09426458 0.05683267 -0.06515621 0.02295883 0.036371484 -0.068869755
-0.037315354 -0.08961396 -0.10018891 -0.11702338 0.071822 -0.00892438 -0.10489425 0.066036254
-0.04858066 0.094460756 -0.036252275 0.06963751 0.08203818 0.0471576 0.013639227 0.055457443
-0.05817437 -0.07131 -0.10313651 0.01728876 0.08429816 0.022966161 -0.09758066 0.08283742
0.10609591 -0.009270415 0.017725766 -0.11548677 -0.04947333 0.033867642 0.07004832 0.008266568
0.0890729 0.0007056743 0.092055425 0.08883695 -0.09073685 -0.09482391 -0.061236262 -0.035183668
-0.09301843 0.08797225 0.025492758 0.014890358 0.054199904 -0.0516655 0.09542419 0.0029263943
0.064440385 0.11035909 0.04880634 -0.0905398 -0.01580605 0.062520966 -0.10496718 -0.11717814
-0.048355415 -0.03144218 -0.05516769 0.07461518 -0.005215645 0.0032997727 -0.118243605 -0.050679445
0.030709013 0.06708884 0.026933655 0.058121756 0.0761217 -0.094095826 0.058725283 0.009511545
0.022653744 -0.017607361 0.050496563 -0.06572765 0.03573589 -0.12216137 -0.121419296 0.05229035
0.07139565 0.014099881 0.10776633 0.023423553 -0.108658746 0.08724843 -0.102672294 0.08675237
0.03269033 -0.05948612 0.02287893 0.10805152 0.0437921 -0.08423419 0.07975581 -0.09505537
-0.108963445 0.046208367 -0.060244694 0.07590179 -0.020348936 0.01761894 0.026218638 0.11201008
-0.0016661286 -0.04266478 0.07905325 0.03262447 0.029851958 0.018025309 0.092898086 0.10346708
-0.032375112 -0.053798437 -0.034186184 0.08003321 -0.058235914 0.017599285 -0.05546926 0.019506365
0.0769975 -0.03382264 0.004477039 -0.03314708 -0.03217563 -0.04972443 -0.05009997 0.057538316
0.08817825 -0.103599355 -0.108518854 0.0561333 0.028543934 0.012936801 0.059036434 0.09000309
0.0016815811 0.09773347 -0.11163704 -0.075266615 -0.056769192 -0.12027784 0.07328439 -0.025488302
0.08608866 -0.05194953 0.02075322 0.03388904 -0.054507613 -0.109211534 -0.12157588 0.09562853
-0.010910794 0.06549986 -0.044267684 -0.0062425435 -0.07794078 0.085919306 -0.078595966 -0.010664508
0.09541717 -0.11868489 -0.08992815 -0.06767531 0.0823428 0.074735835 -0.086734384 -0.120361164
0.06569138 0.11048195 -0.11607331 0.07557815 -0.023927793 -0.024051115 0.12026277 -0.07164048
0.099476755 -0.052033067 -0.094913214 0.018155426 -0.06868589 -0.010595843 0.003907874 -0.09556258
0.0848936 0.033107698 -0.105171666 -0.051196888 0.0064186305 -0.09988333 0.01753521 -0.026774734
-0.08321607 -0.042530477 0.019451246 -0.050758407 0.056999788 0.053287357 -0.0021388233 0.08242342
00000000: 9027 bfbd 101c 93bd 44ee e03d 4c85 a2bd
00000010: 8081 8b3d ec41 cbbd a2de d93d 0042 51bb
00000020: a292 d03d 10ac 163d 3c72 6ebd 4eda 8b3d
00000030: fa31 9f3d 2453 9dbd 7ab4 d03d 720d b4bd
00000040: 5c82 0cbd 00ea 8b3a 2c85 dcbd 122a fc3d
00000050: b89d a4bc c001 5fbd 6495 203d 5091 023c
00000060: 1ec1 b53d 2810 ac3c 4290 88bd 006c ccbb
00000070: 30aa 823c 347e bebd 92e1 b63d ac0e fb3d
00000080: 887a d33c 4ed3 c13d f0bb a5bd ea7b b43d
00000090: fcc0 a13d c68b f03d d4d9 c43d 9004 ed3c
000000a0: ec27 f2bd 2c15 613d 463a c33d 545f 863d
000000b0: 1ecb b03d 80c1 343b c4ba 38bd dc99 40bd
000000c0: b691 f8bd 5842 c7bd ca0d c1bd 60c9 683d
000000d0: 9e70 85bd 2814 bc3c 44fa 143d 960b 8dbd
000000e0: fcd7 18bd 8687 b7bd d82f cdbd f4a9 efbd
000000f0: 6a17 933d 9037 12bc ccd2 d6bd 043e 873d
00000100: 84fc 46bd a474 c13d 447d 14bd 1c9e 8e3d
00000110: a203 a83d 5428 413d 1077 5f3c 5827 633d
00000120: 4048 6ebd fa0a 92bd 3c39 d3bd 28a1 8d3c
00000130: 84a4 ac3d 8823 bc3c 5ed8 c7bd aaa6 a93d
00000140: d048 d93d f0e2 17bc a035 913c 5484 ecbd
00000150: 8ca4 4abd ccb8 0a3d 7e75 8f3d 8070 073c
00000160: da6b b63d 00fd 383a 8e87 bc3d 26f0 b53d
00000170: 3ed4 b9bd 0a33 c2bd e0d2 7abd c01c 10bd
00000180: 7280 bebd cc2a b43d 30d6 d03c b0f6 733c
00000190: b800 5e3d 349f 53bd c26d c33d c0c8 3f3b
000001a0: 52f9 833d f203 e23d 28e9 473d ee6c b9bd
000001b0: b07b 81bc fe0a 803d 08f9 d6bd 18fb efbd
000001c0: 5410 46bd 84c9 00bd 84f7 61bd d8cf 983d
000001d0: 00e8 aabb 0041 583b b429 f2bd 4095 4fbd
000001e0: 7891 fb3c e065 893d f8a3 dc3c 1411 6e3d
000001f0: b2e5 9b3d 50b5 c0bd ec89 703d 50d6 1b3c
00000200: 5894 b93c 503d 90bc 7cd5 4e3d 389c 86bd
00000210: cc5f 123d be2f fabd aeaa f8bd 682e 563d
00000220: e237 923d 3003 673c 98b4 dc3d c0e2 bf3c
00000230: 7a88 debd 4eaf b23d da45 d2bd 3aab b13d
00000240: 4ce6 053d b8a7 73bd 986c bb3c 1e4a dd3d
00000250: 585f 333d fa82 acbd 0457 a33d 64ac c2bd
00000260: 3a28 dfbd fc44 3d3d 24c3 76bd 6672 9b3d
00000270: d0b2 a6bc 9855 903c 78c8 d63c 8a65 e53d
00000280: 0062 daba 44c1 2ebd ace6 a13d 3ca1 053d
00000290: 188c f43c d0a9 933c 5a41 be3d 8ce6 d33d
000002a0: c49b 04bd c05b 5cbd d006 0cbd 74e8 a33d
000002b0: c888 6ebd 602c 903c bc33 63bd d0cb 9f3c
000002c0: deb0 9d3d 9c89 0abd 20b4 923b 3cc5 07bd
000002d0: 98ca 03bd d8ab 4bbd a035 4dbd 4cad 6b3d
000002e0: cc96 b43d e62b d4bd 223f debd 08ec 653d
000002f0: f8d4 e93c e0f4 533c 30d0 713d 8a53 b83d
00000300: 8068 dc3a 7c28 c83d f6a1 e4bd 6225 9abd
00000310: d086 68bd 3a54 f6bd 2016 963d d8cc d0bc
00000320: 404f b03d 08c9 54bd a802 aa3c 3ccf 0a3d
00000330: 6043 5fbd 4caa dfbd c6fc f8bd e4d8 c33d
00000340: 30c3 32bc ca24 863d 0852 35bd 408e ccbb
00000350: 6a9f 9fbd 76f6 af3d ecf6 a0bd 30ba 2ebc
00000360: 146a c33d 1011 f3bd 402c b8bd 5a99 8abd
00000370: 58a3 a83d 1a0f 993d cca1 b1bd ea7f f6bd
00000380: 3489 863d 5c44 e23d d8b7 edbd b8c8 9a3d
00000390: 3804 c4bc d806 c5bc 544c f63d 3eb8 92bd
000003a0: 78ba cb3d a020 55bd dc61 c2bd b0ba 943c
000003b0: 30ab 8cbd 309a 2dbc a00d 803b 50b6 c3bd
000003c0: b2dc ad3d f09b 073d 3e64 d7bd d4b3 51bd
000003d0: 6053 d23b a28f ccbd 00a6 8f3c b056 dbbc
000003e0: 306d aabd 7034 2ebd 3858 9f3c 0ce8 4fbd
000003f0: 9c78 693d d843 5a3d 802b 0cbb 9ccd a83d

transformer.layers.0.self_attn.out_proj.bias f4 [64]
0.0 0.0 0.0 0.0 0.0 0.0 0.0 0.0
0.0 0.0 0.0 0.0 0.0 0.0 0.0 0.0
0.0 0.0 0.0 0.0 0.0 0.0 0.0 0.0
0.0 0.0 0.0 0.0 0.0 0.0 0.0 0.0
0.0 0.0 0.0 0.0 0.0 0.0 0.0 0.0
0.0 0.0 0.0 0.0 0.0 0.0 0.0 0.0
0.0 0.0 0.0 0.0 0.0 0.0 0.0 0.0
0.0 0.0 0.0 0.0 0.0 0.0 0.0 0.0
00000000: 0000 0000 0000 0000 0000 0000 0000 0000
00000010: 0000 0000 0000 0000 0000 0000 0000 0000
00000020: 0000 0000 0000 0000 0000 0000 0000 0000
00000030: 0000 0000 0000 0000 0000 0000 0000 0000
00000040: 0000 0000 0000 0000 0000 0000 0000 0000
00000050: 0000 0000 0000 0000 0000 0000 0000 0000
00000060: 0000 0000 0000 0000 0000 0000 0000 0000
00000070: 0000 0000 0000 0000 0000 0000 0000 0000
00000080: 0000 0000 0000 0000 0000 0000 0000 0000
00000090: 0000 0000 0000 0000 0000 0000 0000 0000
000000a0: 0000 0000 0000 0000 0000 0000 0000 0000
000000b0: 0000 0000 0000 0000 0000 0000 0000 0000
000000c0: 0000 0000 0000 0000 0000 0000 0000 0000
000000d0: 0000 0000 0000 0000 0000 0000 0000 0000
000000e0: 0000 0000 0000 0000 0000 0000 0000 0000
000000f0: 0000 0000 0000 0000 0000 0000 0000 0000

transformer.layers.0.linear1.weight f4 [256, 64]
0.11930384 0.02911821 0.120144516 0.097201005 0.0992191 0.04104434 0.06489569 -0.041851446
-0.081755295 -0.022044048 0.123908535 0.019429564 -0.038558573 0.037671313 -0.030016422 0.09294014
0.06271157 -0.06787677 -0.054647848 0.027670473 -0.01844421 0.10467246 0.027788147 0.050814047
0.12393087 -0.0015008599 -0.014378488 0.05998437 -0.0014701933 0.065709025 0.07277556 -0.018693164
-0.015396103 -0.027393654 -0.0810156 -0.06395993 0.11419776 -0.015892372 -0.043504834 0.07160914
0.08025698 -0.00080902874 -0.111677706 0.082054466 -0.018033743 -0.061800882 0.011353269 0.05203955
0.06544858 0.0023666322 -0.101676896 0.08510785 0.007341042 0.08299212 0.039029688 0.11373301
-0.08144389 0.029713184 0.007055372 -0.056714475 -0.06592496 0.07384889 0.040119946 0.10515611
0.06792779 0.079017 -0.050489336 -0.06875263 -0.0080058575 -0.011416182 0.0034255087 0.09563337
-0.12213273 -0.019051015 -0.02943115 0.1123738 -0.0781952 0.01630333 -0.075046375 -0.08489041
-0.05194001 -0.12094733 0.09883012 0.092917964 -0.039436355 0.017356709 0.04305598 0.02802296
-0.040154293 0.068832815 0.11019905 0.10721056 -0.0054563284 0.07906464 -0.084619224 -0.11847676
0.01654227 0.101056844 0.0081566125 -0.045559585 0.059573814 0.017063633 0.08219072 -0.09895952
-0.070959866 0.01573947 -0.012270018 -0.0007929355 0.030421987 -0.107090205 0.11939235 0.056272656
-0.03990698 0.07574268 0.025066942 0.07514328 0.07293235 -0.041798085 0.035959497 -0.099924445
-0.05039242 -0.017702803 -0.015549049 -0.094825014 0.092254 0.06273198 0.023423567 -0.027821437
-0.12477997 -0.01735261 0.04463069 0.009577706 0.057249412 0.06866501 0.113519594 0.044923708
-0.118741274 -0.10474573 -0.04210961 0.020563021 0.06705429 -0.09950459 -0.122212395 0.098395586
0.0091757625 0.062083393 -0.12417656 -0.0298554 -0.02198778 -0.113321066 0.07115978 -0.0894209
0.054534644 0.029753745 0.09792398 -0.10776836 -0.08119722 0.054624468 0.120425835 0.019681454
0.033710048 0.055794597 -0.0066058636 -0.11854167 0.108035564 0.08911891 0.025919214 -0.080968484
-0.05483663 -0.031449676 -0.05023089 0.038391456 0.030746177 -0.12138049 0.0706933 -0.0375247
0.044573784 -0.07970975 0.07912165 -0.08214241 -0.033018574 0.10988754 -0.08574161 -0.104575396
-0.059989795 -0.080203936 0.11809027 0.03348981 0.008341044 0.03826745 0.11788623 0.008295491
-0.06814389 -0.122986555 -0.11740516 -0.057003155 0.0361778 0.010413453 0.09155792 -0.09747025
0.07881437 0.00891979 0.10020366 0.027923346 -0.030020222 0.08531663 0.017441154 0.09360568
-0.051270083 -0.009729251 0.0840693 -0.039434016 0.056386963 -0.026386783 -0.11513248 -0.002851382
-0.08592977 0.054003015 0.017350212 -0.0903047 0.113510236 -0.0013352782 0.04081364 0.114876285
-0.10248217 0.05212015 -0.094739825 -0.062098756 -0.08778168 -0.0044338554 -0.050313428 -0.11409919
0.124355495 -0.07016313 0.07569879 0.09589444 -0.09283115 0.031749696 0.03261052 0.10576604
-0.007309541 -0.06891294 -0.120636195 -0.055173725 0.11623542 -0.003093347 -0.043736532 0.059943676
-0.01391755 -0.021893188 0.041158855 0.042355835 0.07458097 -0.036361784 -0.06091562 0.098829955
00000000: 9255 f43d 5089 ee3c 540e f63d 5211 c73d
00000010: 6233 cb3d 1c1e 283d 08e8 843d 6c6c 2bbd
00000020: 526f a7bd b895 b4bc c2c3 fd3d c02a 9f3c
00000030: 98ef 1dbd 3c4d 1a3d 00e5 f5bc 6657 be3d
00000040: ec6e 803d fa02 8bbd 6cd6 5fbd 30ad e23c
00000050: 5018 97bc 845e d63d f8a3 e33c 6422 503d
00000060: 78cf fd3d 80b8 c4ba c093 6bbc 2cb2 753d
00000070: 80b3 c0ba 7492 863d 5a0b 953d 6822 99bc
00000080: f03f 7cbc a868 e0bc 82eb a5bd 6cfd 82bd
00000090: 84e0 e93d b830 82bc 2032 32bd d0a7 923d
000000a0: c65d a43d 0015 54ba 48b7 e4bd 2c0c a83d
000000b0: 80bb 93bc ec22 7dbd 1003 3a3c 6c27 553d
000000c0: e809 863d 8019 1b3b fa3b d0bd 064d ae3d
000000d0: 208d f03b c6f7 a93d 98dd 1f3d daec e83d
000000e0: 0ecc a6bd 1069 f33c c030 e73b 704d 68bd
000000f0: aa03 87bd 163e 973d d054 243d 165c d73d
00000100: ba1d 8b3d aad3 a13d e8cd 4ebd 2ece 8cbd
00000110: 002b 03bc f00a 3bbc 807e 603b 6edb c33d
00000120: ba20 fabd e010 9cbc 9819 f1bc 3c24 e63d
00000130: ce24 a0bd 908e 853c eab1 99bd 06db adbd
00000140: 0cbf 54bd 3cb3 f7bd 7267 ca3d c64b be3d
00000150: 0488 21bd a82f 8e3c 785b 303d 6890 e53c
00000160: d478 24bd 38f8 8c3d 0ab0 e13d 3691 db3d
00000170: 00cb b2bb a4ec a13d d84c adbd f2a3 f2bd
00000180: a883 873c e4f6 ce3d 50a3 053c b09c 3abd
00000190: ac03 743d 08c9 8b3c 9c53 a83d 4aab cabd
000001a0: 6853 91bd 10f0 803c 3008 49bc 00dd 4fba
000001b0: 8837 f93c 1c52 dbbd fa83 f43d 287e 663d
000001c0: 8075 23bd fa1e 9b3d 3059 cd3c b8e4 993d
000001d0: 8e5d 953d 7834 2bbd 444a 133d 30a5 ccbd
000001e0: 4868 4ebd 7805 91bc 70c1 7ebc 9e33 c2bd
000001f0: aaef bc3d a079 803d c8e2 bf3c c8e9 e3bc
00000200: a48c ffbd 1027 8ebc acce 363d d0eb 1c3c
00000210: 5c7e 6a3d 3ea0 8c3d f67c e83d ec01 383d
00000220: a02e f3bd ee84 d6bd 207b 2cbd c873 a83c
00000230: c253 893d 10c9 cbbd 7e4a fabd a083 c93d
00000240: f055 163c 284b 7e3d 4850 febd 5093 f4bc
00000250: b81f b4bc e014 e8bd 38bc 913d 4e22 b7bd
00000260: b85f 5f3d 20be f33c 5e8c c83d a8b5 dcbd
00000270: ba4a a6bd e8bd 5f3d d2a1 f63d 003b a13c
00000280: 8c13 0a3d e088 643d 0076 d8bb fac5 f2bd
00000290: c041 dd3d fa83 b63d 8854 d43c ced2 a5bd
000002a0: 609c 60bd 60d1 00bd e8be 4dbd 5c40 1d3d
000002b0: 68df fb3c 5696 f8bd a6c7 903d 80b3 19bd
000002c0: 0093 363d de3e a3bd 880a a23d 483a a8bd
000002d0: 7c3e 07bd b80c e13d 4c99 afbd a02b d6bd
000002e0: dcb7 75bd f641 a4bd 50d9 f13d 9c2c 093d
000002f0: e0a8 083c 54be 1c3d 566e f13d d0e9 073c
00000300: 068f 8bbd 60e0 fbbd 1e72 f0bd 247c 69bd
00000310: 2c2f 143d 309d 2a3c b882 bb3d 7c9e c7bd
00000320: 6e69 a13d 5024 123c 9437 cd3d 80bf e43c
00000330: f8ec f5bc 7cba ae3d c0e0 8e3c 56b4 bf3d
00000340: 9400 52bd 7067 1fbc 862c ac3d 9085 21bd
00000350: 04f6 663d 1829 d8bc 94ca ebbd 40de 3abb
00000360: f2fb afbd 4432 5d3d 0822 8e3c acf1 b8bd
00000370: 0e78 e83d 8004 afba 342c 273d 4244 eb3d
00000380: 2ce2 d1bd f07b 553d f406 c2bd 445b 7ebd
00000390: e2c6 b3bd e049 91bb 7415 4ebd d6ac e9bd
000003a0: 18ae fe3d b0b1 8fbd f807 9b3d 4e64 c43d
000003b0: 421e bebd f80b 023d 9c92 053d de9b d83d
000003c0: e084 efbb 3a22 8dbd 1c10 f7bd d8fd 61bd
000003d0: d60c ee3d c0b9 4abb 1425 33bd 8087 753d
000003e0: 7006 64bc 5859 b3bc 3096 283d 507d 2d3d
000003f0: e8bd 983d 18f0 14bd a882 79bd 5c67 ca3d

transformer.layers.0.linear1.bias f4 [256]
-0.0056729615 -0.06888585 0.10441011 0.03990747 0.043417186 0.056394503 0.05452533 -0.112863526
0.12111457 0.048120394 -0.0319435 -0.018303812 -0.021114498 0.11062868 -0.07610603 0.020685852
-0.042272493 -0.067253456 0.11495753 0.037726358 0.11383177 -0.06469315 -0.097313896 -0.114690736
0.021813303 0.0685083 -0.07203247 0.03313838 0.10720576 -0.09990181 0.08529331 0.11639151
-0.045804873 -0.03931196 -0.104952395 0.062017754 0.11566758 -0.028845966 0.01932408 0.1060248
-0.08647531 -0.08494446 -0.08195314 0.013993666 -0.08865161 0.026992723 -0.07950711 -0.088746116
0.0137152225 -0.09099856 -0.01347284 -0.06275202 -0.080926105 0.08718029 0.01981926 -0.095725924
-0.008295938 -0.10063639 -0.097281516 -0.040169105 0.102696285 0.0035424829 0.11136678 0.029474914
0.11961767 -0.103184655 -0.05619088 0.11706439 0.009891719 0.040236294 0.091852054 -0.041851804
-0.10487597 0.01958932 -0.08830324 -0.05981247 0.08640532 0.0070682317 -0.10049376 0.11259988
-0.05682732 -0.0021757632 0.11521576 -0.005891755 -0.045481935 -0.027341574 0.03304209 0.01825516
-0.10432096 -0.010962486 0.0173323 -0.082264364 0.055407286 0.101312235 -0.07938121 -0.08168118
-0.01205647 0.06031294 -0.0858016 -0.08366236 -0.049975112 -0.042443156 -0.07499115 -0.045262188
0.03145227 -0.001793772 0.066017315 -0.10480872 0.009622186 -0.0032714456 0.002381906 0.044777587
-0.060742438 0.030233666 0.06638855 0.114788964 0.10610433 -0.115321875 0.0032684356 -0.07035549
0.034051165 -0.09739083 0.07586233 -0.053767547 0.07002127 0.060197577 -0.036176503 0.11041233
0.11400001 0.08399816 -0.060530007 -0.11417599 -0.09047055 -0.04732223 0.04194072 -0.007815599
0.07915777 0.034747124 0.116731405 -0.086394906 0.047654614 -0.020977363 0.096836716 0.07578634
-0.05731465 -0.07085979 0.06409305 -0.025732338 -0.12488952 -0.04128264 0.06061104 -0.12284739
0.062163517 -0.10313399 -0.055678576 0.10551563 0.08112678 0.019123122 -0.0648379 0.0025054812
-0.03945172 -0.06923711 0.09016286 0.0019408464 0.0391856 0.05429901 0.053227335 -0.07758437
0.109792694 0.048058093 -0.027506977 -0.08881834 0.02941385 -0.02493146 0.08181642 -0.10398419
0.078240365 -0.060409486 -0.0049723536 -0.111743286 0.068315625 0.011407763 0.028664857 0.09639454
-0.09089649 -0.01031746 -0.058726594 0.04274413 -0.07949363 0.020994365 -0.0990521 -0.107682735
0.07351436 -0.02482669 -0.09415434 -0.08515571 0.11396235 0.06096582 -0.047914147 -0.042836085
-0.02744621 0.10607578 0.04138501 -0.066520646 -0.10443254 0.047567725 -0.005093679 -0.032597408
-0.034190744 0.03903468 0.0904011 -0.013680771 0.006482661 -0.06495078 -0.0939749 -0.1157753
-0.005721599 0.12333748 0.06172286 0.008980066 0.04040584 -0.048219398 0.05833505 0.022886902
-0.058532357 -0.014821053 0.0048062354 -0.0047376603 -0.059900656 -0.05093144 -0.104417905 0.06659907
-0.03958091 0.07693823 -0.089239046 0.04003264 -0.022837132 0.013648003 0.10151267 -0.027911022
-0.0067558885 0.11935036 0.008287281 -0.08209048 0.10050593 0.10721359 -0.024103105 0.045405105
-0.08441116 0.055726737 -0.07736346 0.04294385 -0.11252557 -0.057597563 -0.062017336 -0.09423339
00000000: 40e4 b9bb 0614 8dbd f8d4 d53d 0476 233d
00000010: 38d6 313d ecfd 663d f455 5f3d fe24 e7bd
00000020: ea0a f83d e419 453d 30d7 02bd e0f1 95bc
00000030: 50f8 acbc 4a91 e23d 7add 9bbd 6075 a93c
00000040: ec25 2dbd 2ebc 89bd da6e eb3d f486 1a3d
00000050: a220 e93d d87d 84bd 824c c7bd fae2 eabd
00000060: d0b1 b23c 144e 8c3d c285 93bd 1cbc 073d
00000070: b28e db3d 5299 ccbd 42ae ae3d ac5e ee3d
00000080: e49d 3bbd 9405 21bd 48f1 d6bd 5406 7e3d
00000090: 20e3 ec3d 604e ecbc 884d 9e3c 8823 d93d
000000a0: f819 b1bd 5cf7 adbd 0cd7 a7bd b045 653c
000000b0: fa8e b5bd d81f dd3c a0d4 a2bd 86c0 b5bd
000000c0: d0b5 603c 745d babd 30bd 5cbc 2284 80bd
000000d0: 96bc a5bd 948b b23d 005c a23c f40b c4bd
000000e0: b0eb 07bc 741a cebd 883b c7bd 5c88 24bd
000000f0: 6e52 d23d 0029 683b 4414 e43d 6075 f13c
00000100: 1cfa f43d 7a52 d3bd 6828 66bd 74bf ef3d
00000110: e010 223c d0ce 243d ee1c bc3d cc6c 2bbd
00000120: 36c9 d6bd c879 a03c 54d8 b4bd ecfd 74bd
00000130: 46f5 b03d a09c e73b accf cdbd c49a e63d
00000140: c4c3 68bd 4097 0ebb 3ef6 eb3d a00f c1bb
00000150: 444b 3abd 70fb dfbc 2457 073d d88b 953c
00000160: 3aa6 d5bd 009c 33bc 78fc 8d3c 387a a8bd
00000170: c0f2 623d ca7c cf3d 9e92 a2bd 7648 a7bd
00000180: 8088 45bc b40a 773d c0b8 afbd 2c57 abbd
00000190: b4b2 4cbd e0d8 2dbd f694 99bd d864 39bd
000001a0: 18d4 003d 001d ebba 1634 873d f4a5 d6bd
000001b0: 60a6 1d3c c065 56bb c019 1c3b b468 373d
000001c0: 10cd 78bd 98ac f73c b8f6 873d 7a16 eb3d
000001d0: 3a4d d93d e02d ecbd 4033 563b 8a16 90bd
000001e0: 3c79 0b3d d874 c7bd b65d 9b3d 5c3b 5cbd
000001f0: 5067 8f3d bc91 763d d02d 14bd dc1f e23d
00000200: d678 e93d 3a07 ac3d 50ee 77bd 1ad5 e9bd
00000210: a048 b9bd f4d4 41bd 08ca 2b3d 000d 00bc
00000220: 781d a23d 0053 0e3d e010 ef3d d0ef b0bd
00000230: 7c31 433d b8d8 abbc 5452 c63d de35 9b3d
00000240: c4c2 6abd f01e 91bd 3843 833d a0cc d2bc
00000250: 14c6 ffbd fc17 29bd 4843 783d 6a97 fbbd
00000260: 2c9f 7e3d ea37 d3bd 380f 64bd 9418 d83d
00000270: cc25 a63d 18a8 9c3c bcc9 84bd 0033 243b
00000280: 2098 21bd 30cc 8dbd 4ea7 b83d 0064 fe3a
00000290: 1481 203d a468 5e3d e804 5a3d 8ee4 9ebd
000002a0: feda e03d 90d8 443d 5056 e1bc 64e6 b5bd
000002b0: 50f5 f03c 103d ccbc 5e8f a73d aaf5 d4bd
000002c0: 7c3c a03d f06f 77bd 20ef a2bb aad9 e4bd
000002d0: 10e9 8b3d a0e7 3a3c 90d2 ea3c 806a c53d
000002e0: f027 babd 900a 29bc 4c8b 70bd 7814 2f3d
000002f0: 8ecd a2bd 60fc ab3c d4db cabd c488 dcbd
00000300: b28e 963d 5861 cbbc fed3 c0bd 1e66 aebd
00000310: 1865 e93d 4cb7 793d a041 44bd e474 2fbd
00000320: e0d6 e0bc 423e d93d 5483 293d fa3b 88bd
00000330: bae0 d5bd 60d6 423d e0e8 a6bb dc84 05bd
00000340: 980b 0cbd d4e2 1f3d 3624 b93d 5025 60bc
00000350: 806c d43b ea04 85bd ea75 c0bd 9a1b edbd
00000360: 407c bbbb 5c98 fc3d 1cd1 7c3d 2021 133c
00000370: 9880 253d b481 45bd bcf0 6e3d 507d bb3c
00000380: a0bf 6fbd 00d4 72bc a07d 9d3b 603e 9bbb
00000390: 645a 75bd 7c9d 50bd 0ed9 d5bd 1865 883d
000003a0: 981f 22bd ca91 9d3d f6c2 b6bd 44f9 233d
000003b0: f014 bbbc e09b 5f3c e0e5 cf3d a8a5 e4bc
000003c0: 8060 ddbb f66d f43d 60c7 073c 0e1f a8bd
000003d0: 0ed6 cd3d cc92 db3d e073 c5bc b4fa 393d
000003e0: c2df acbd b841 643d bc70 9ebd e4e5 2f3d
000003f0: ce73 e6bd 6ceb 6bbd e405 7ebd 70fd c0bd

transformer.layers.0.linear2.weight f4 [64, 256]
-0.047623664 0.008194566 0.031559438 0.03354209 -0.019745097 0.0021019503 -0.05451159 0.052346222
-0.060727708 -0.03813263 -0.043899275 -0.053795554 0.029015161 0.027587302 0.032564245 0.036563776
0.043707363 0.028191969 0.03951276 0.032396585 -0.047552377 -0.05978506 0.0365137 0.02399256
-0.03749512 -0.055061318 0.007937223 -0.026961356 0.016361758 0.055328332 -0.053587504 0.023926333
0.060758404 0.049931362 0.028229281 0.050883494 0.0614978 -0.0051065534 0.025967807 -0.048502393
-0.048295587 -0.021448225 0.049854293 -0.00757806 -0.017887093 0.015371047 0.0007312894 -0.029996268
-0.010925181 -0.013545848 0.054925516 0.042064913 -0.010423377 0.05842869 0.03268197 0.04664374
-0.005679235 -0.012885489 0.04260861 -0.013997443 0.019969553 0.054705426 0.051984973 -0.04669746
-0.0404882 0.021624051 -0.017739914 0.030950546 -0.051894695 0.014724918 0.033309817 -0.0020329729
-0.025191449 0.017842732 0.0032075346 -0.05685474 -0.0059933662 0.0014115795 -0.013909437 -0.043187
-0.017832592 0.03404437 0.034765616 -0.002298355 0.05171834 -0.033213004 -0.0017813966 0.046256095
-0.036394782 -0.0071487725 0.037647642 0.04564312 0.059073605 -0.03911735 -0.017111748 -0.053980798
0.013707787 0.0036103204 -0.028365262 -0.027125105 0.010635264 0.01602348 0.034254953 0.0026074946
0.008567803 -0.05264046 0.035262622 -0.017331727 0.021693014 -0.008317806 -0.05179382 -0.0082271695
0.050575092 0.039785564 -0.025401466 -0.013028204 -0.018498488 0.04867696 -0.027157828 -0.04650311
-0.05717977 0.0016770139 -0.027650394 -0.034453884 -0.045304455 -0.030595087 -0.026299395 -0.018434241
0.043589555 -0.046258003 0.015763134 -0.02910459 0.030623212 -0.05724159 -0.026625305 -0.0056461394
-0.0445977 -0.035236187 0.021912344 0.055453956 -0.06021697 0.05500354 0.02221091 -0.016751625
-0.01999744 -0.00077290833 -0.028615661 0.05876875 0.034883156 0.007044114 0.024060994 -0.0054687858
0.034187794 0.051346593 -0.02646517 0.0043804124 -0.0495599 0.061291993 -0.02444271 -0.03380385
-0.026614614 -0.046693586 0.023721285 -0.0099872425 -0.036792487 -0.05058936 0.013335414 0.061249413
0.06225434 -0.050815932 -0.032701753 0.022060685 0.013383053 -0.05200479 0.055509053 0.029411912
0.053091593 0.034576498 -0.019092292 -0.030974768 0.045255758 -0.016448297 0.041585937 -0.023311533
0.012179576 0.048380308 -0.062421873 -0.00014657527 0.022703625 -0.043426454 -0.053093545 -0.048378162
0.033200257 0.0527329 0.0053907856 -0.004646927 0.044798866 -0.023797758 -0.015634395 0.015078902
0.032387316 0.01246807 0.061486915 -0.04963112 0.05258265 -0.025345765 0.020820864 0.0076478347
0.030234374 0.04740735 -0.04209377 -0.024535738 -0.0480033 0.04090993 0.061697803 0.026301965
0.057077214 0.031713463 0.038197532 -0.035667114 0.034138285 0.008289613 -0.010961786 0.004211463
-0.050141677 -0.025422975 -0.04891547 0.025893807 -0.046902277 0.02469194 0.0047565475 0.021416344
0.005826749 0.041390322 0.0057459623 -0.044923916 0.05746136 0.04216159 0.05077686 -0.0044451207
0.052608863 0.049305335 0.011300072 0.0127079785 0.0032307282 -0.059259832 -0.014735803 0.049632117
-0.036419004 -0.013518617 -0.0047799274 -0.005055748 0.015186109 -0.012137473 0.005658403 0.0258075
00000000: 0811 43bd 8042 063c 7844 013d 6e63 093d
00000010: 78c0 a1bc e0c0 093b 8c47 5fbd fe68 563d
00000020: 9ebd 78bd f630 1cbd bacf 33bd ba58 5cbd
00000030: 34b1 ed3c c4fe e13c 1662 053d e6c3 153d
00000040: 7e06 333d d8f2 e63c 22d8 213d 48b2 043d
00000050: 48c6 42bd 2ee1 74bd 648f 153d 0c8c c43c
00000060: 7c94 19bd fa87 61bd 200b 023c 10de dcbc
00000070: 1809 863c f69f 623d 927e 5bbd 2801 c43c
00000080: cedd 783d d484 4c3d 1841 e73c 366b 503d
00000090: 1ee5 7b3d e054 a7bb 70ba d43c 72aa 46bd
000000a0: 98d1 45bd 30b4 afbc 0434 4c3d 6051 f8bb
000000b0: f487 92bc d8d6 7b3c 00b4 3f3a bcba f5bc
000000c0: 88ff 32bc 68ef 5dbc 94f9 603d 424c 2c3d
000000d0: d0c6 2abc ec52 6f3d 88dd 053d 820d 3f3d
000000e0: e018 babb a81d 53bc 5e86 2e3d 8855 65bc
000000f0: 3097 a33c cc12 603d 32ee 543d d645 3fbd
00000100: f4d6 25bd ec24 b13c 4c53 91bc 008c fd3c
00000110: 888f 54bd c840 713c e06f 083d a03b 05bb
00000120: 4c5e cebc ec2a 923c 8035 523b 84e0 68bd
00000130: 0064 c4bb c004 b93a 68e4 63bc dae4 30bd
00000140: a815 92bc 1c72 0b3d 6466 0e3d 00a0 16bb
00000150: 9cd6 533d 5c0a 08bd c07d e9ba 0877 3d3d
00000160: b212 15bd 4040 eabb 6a34 1a3d 48f4 3a3d
00000170: 2af7 713d 8439 20bd f02d 8cbc f81a 5dbd
00000180: a096 603c 209b 6c3b 445e e8bc 7835 debc
00000190: 883f 2e3c ac43 833c ec4e 0c3d 80e2 2a3b
000001a0: f85f 0c3c 869d 57bd 8a6f 103d 44fb 8dbc
000001b0: 8cb5 b13c 6847 08bc c225 54bd 40cb 06bc
000001c0: d427 4f3d 30f6 223d bc16 d0bc 4074 55bc
000001d0: 248a 97bc 7e61 473d 187a debc 0c7a 3ebd
000001e0: 5635 6abd 40cf db3a 1483 e2bc 841f 0dbd
000001f0: 2a91 39bd 8ca2 fabc d471 d7bc 6803 97bc
00000200: f68a 323d 0879 3dbd b021 813c c06c eebc
00000210: 88dd fa3c 2876 6abd 501d dabc 4003 b9bb
00000220: 14ac 36bd d253 10bd 8481 b33c b023 633d
00000230: 12a6 76bd 644b 613d a8f3 b53c b43a 89bc
00000240: acd1 a3bc 009d 4aba 646b eabc 80b7 703d
00000250: a4e1 0e3d 50d2 e63b 901b c53c 8033 b3bb
00000260: 8008 0c3d ce50 523d 7ccd d8bc 9089 8f3b
00000270: 52ff 4abd 500d 7b3d 143c c8bc e875 0abd
00000280: e406 dabc c641 3fbd 2453 c23c 88a1 23bc
00000290: b8b3 16bd ca36 4fbd c87c 5a3c aae0 7a3d
000002a0: 68fe 7e3d 5e24 50bd 46f2 05bd 9cb8 b43c
000002b0: 9844 5b3c fa02 55bd 765d 633d 40f1 f03c
000002c0: 9276 593d 16a0 0d3d 7067 9cbc ccbe fdbc
000002d0: 1a5e 393d 94be 86bc 0456 2a3d d4f7 bebc
000002e0: d88c 473c 6e2a 463d 14ae 7fbd 00b2 19b9
000002f0: f4fc b93c f0df 31bd 9e78 59bd 2e28 46bd
00000300: fefc 073d 74fe 573d 30a5 b03b 4045 98bb
00000310: 047f 373d 84f3 c2bc b413 80bc 800d 773c
00000320: 90a8 043d e046 4c3c b4d9 7b3d 004a 4bbd
00000330: e860 573d eca1 cfbc 8490 aa3c b09a fa3b
00000340: 14ae f73c 362e 423d 846a 2cbd 2cff c8bc
00000350: 1c9f 44bd 2c91 273d d6b6 7c3d 3877 d73c
00000360: ccc9 693d fae5 013d 0475 1c3d ae17 12bd
00000370: 96d4 0b3d 28d1 073c 1099 33bc 5000 8a3b
00000380: 5c61 4dbd d843 d0bc 965b 48bd 401f d43c
00000390: 9a1c 40bd c046 ca3c d0dc 9b3b 5471 af3c
000003a0: 50ee be3b e688 293d a048 bc3b 2402 38bd
000003b0: 9a5c 6b3d a2b1 2c3d 66fb 4f3d 60a8 91bb
000003c0: 647c 573d 64f4 493d f023 393c 2035 503c
000003d0: a0ba 533b 70ba 72bd 706e 71bc 0c4b 4b3d
000003e0: 182c 15bd 307d 5dbc f0a0 9cbb b0aa a5bb
000003f0: 28cf 783c 40dc 46bc 206a b93b 406a d33c
