ai_agent/models/online_updated.pt (torch, 697357 bytes, 45 tensors)

shared.0.weight f4 [256, 11]
00000000: e93b ecbc 7179 87bc b218 8cbc 1dd7 763c
00000010: 0273 31be 7aaa 7fbe 90fe fabc 4387 583e
00000020: 7614 c83e a2d0 68bb d13a fd3e 7bbe 0ebd
00000030: b187 96bd 431b 7ebd 794c c4bb 8997 34bd
00000040: 26e1 0cbf 10de 8bbd 5023 b43e c27d 9d3e
00000050: a247 44bb 9635 f63e 3938 253c 23ab 8d3c
00000060: 621b f63a 1342 02ba a65b 423e 7d40 193d
00000070: 7c69 7eba 752f 803e 4cdb c53e d9e3 5abb
00000080: a260 233f 539b 2b3d dd02 6abd 4cb7 54bd
00000090: 82ca 843c 1903 34be b828 923e c4bc 983d
000000a0: 3981 d13d 83a8 173f 8c5f 04ba c73e f73e
000000b0: 1051 253c 6d35 8d3c b019 f63a 6269 f1b9
000000c0: 6cff 423e 1ced 193d ece7 74ba 3704 7f3e
000000d0: 0c42 c33e 2aee 5abb e9f7 243f 86ad fdbc
000000e0: 402d f5bd e61d c9bd bd4e b8bc d985 883e
000000f0: 436e d8be b37b 30bd dd72 573e f6fe 2e3f
00000100: 2804 12bb 4f59 ec3e 3e4e 6bbd 5e4b 4fbd
00000110: 4a6d 90bd 0911 0fbd 5ecf bdbe a959 0abe
00000120: 916c 1cbb e0c7 f23e 8451 043f 3a39 673b
00000130: f137 e63e 0951 253c c540 8d3c d1ec f53a
00000140: f2e7 f1b9 643e 433e 75ba 193d 0c70 76ba
00000150: 1cd6 7e3e 0e8f c33e 1ef6 5abb 45e8 243f
00000160: 2d41 253c 883b 8d3c 7e79 f73a 1cb2 feb9
00000170: 2587 413e 5d39 1b3d 08e6 6fba f3b4 803e
00000180: 31cc c23e d0a6 5abb e10c 243f c454 253c
00000190: cf1a 8e3c a853 f23a 5592 00ba 8746 4b3e
000001a0: 49fe 143d 215b 8aba 01e9 7a3e dc0e c93e
000001b0: 289b 5bbb 0a77 233f 0d55 253c b13a 8d3c
000001c0: 04b2 f53a f653 f1b9 bbaf 433e e1c2 193d
000001d0: b8a6 76ba 1d5d 7e3e 407e c33e 3fff 5abb
000001e0: d5f9 243f 750f 8dbd 740e 17bd 6adc e7bd
000001f0: 40d4 d7bb 859d 8e3e 5bb0 24bf 2b86 9fbd
00000200: e050 4d3e 7147 183f 4885 89bb 9170 ed3e
00000210: 9823 05bd ca01 b23c eace ba3b 9e59 29bd
00000220: db7c 503e 6845 88be a8de debc 4fd7 b7bb
00000230: 6fa7 903e 3690 603b 2ff3 143f 2843 a73d
00000240: 209f e33d 872b 1b3e 591f 96bc 933e 013f
00000250: 5967 d33e af9b fd3d 5242 1a3e 7a99 ee3e
00000260: 35dc 793b 9da4 d13e 6749 253c eba8 8d3c
00000270: 20e5 f43a 88e0 f3b9 0d33 453e 8d9e 173d
00000280: 049c 81ba 6131 7e3e 8216 c63e 7a2e 5bbb
00000290: f381 243f d93f 623c 08f4 0bb9 38ee 73bd
000002a0: f321 1bbc 4183 8a3e 00aa f63d e828 a13a
000002b0: c415 583e af27 393f 8d95 553b 5463 e73e
000002c0: d455 253c 2f39 8d3c 33a8 f53a 0247 f1b9
000002d0: 1ec1 433e 69c8 193d caa3 76ba 4d47 7e3e
000002e0: 1d79 c33e 9d00 5bbb 63fc 243f 7550 253c
000002f0: b139 8d3c 3811 f63a d613 f2b9 c8ea 423e
00000300: 4bf4 193d 885a 75ba 9903 7f3e 6260 c33e
00000310: 73ee 5abb 33e9 243f b4b6 2e3c 8a40 0cbd
00000320: 4dce 2bbd 734c 1d3c 0f2e 73be ba74 a3be
00000330: 9d6f 2a3d 8e14 a13e 3c1f b63e c8d8 843a
00000340: 716d 063f 934f 253c 8842 8d3c 0303 f63a
00000350: 9c86 f1b9 100c 433e a6bd 193d 245e 76ba
00000360: bb02 7f3e d393 c33e 16f3 5abb b3eb 243f
00000370: 40aa bbbd ca8d 0ebe 6529 19be 2907 5bbd
00000380: db52 093f fc2b 55be fe90 a4bd a786 4a3e
00000390: 978f 5f3e 7597 56bb 6ae8 023f 2752 253c
000003a0: a13d 8d3c 4fe2 f53a f881 f1b9 434f 433e
000003b0: 3ec8 193d ad4f 76ba 80bb 7e3e 0d81 c33e
000003c0: 98f7 5abb c2f1 243f 8d54 253c 692e 8d3c
000003d0: 6ef4 f53a 302d f1b9 c86c 433e 93e5 193d
000003e0: e1b3 74ba 34ac 7e3e 2920 c33e 40f4 5abb
000003f0: f203 253f 954b 253c 7942 8d3c ba52 f63a
-0.028837161 -0.0165374 -0.01710162 0.015065935 -0.17329028 -0.24967375 -0.030638963 0.21145348
0.3907811 -0.0035524745 0.49458936 -0.034849625 -0.073501 -0.062037718 -0.0059905616 -0.044089828
-0.5503105 -0.068294644 0.3518319 0.30760008 -0.0029949923 0.48087758 0.010084205 0.017293518
0.0018776471 -0.0004968952 0.18980274 0.037415016 -0.00097050495 0.25036207 0.38643873 -0.0033399968
0.63819325 0.041896176 -0.057131637 -0.051932618 0.016209844 -0.17579307 0.2854669 0.07457879
0.102297254 0.59241503 -0.0005049638 0.48290083 0.010090128 0.01723739 0.0018775966 -0.00046045618
0.19042748 0.03757964 -0.00093424204 0.24903952 0.38136327 -0.0033406117 0.6444078 -0.030966531
-0.119715214 -0.09820156 -0.022498483 0.26664618 -0.42271623 -0.04308672 0.2103991 0.6835779
-0.002228031 0.46161887 -0.057447664 -0.050608985 -0.07052095 -0.034928355 -0.3707227 -0.13510765
-0.0023868422 0.47418118 0.5168688 0.0035281912 0.44964555 0.010090121 0.017242799 0.0018762593
-0.00046139915 0.19066769 0.037531335 -0.00094008516 0.24886364 0.3819508 -0.0033410857 0.64416915
0.01008634 0.0172403 0.0018880812 -0.00048579357 0.1889921 0.037896503 -0.0009151404 0.25138053
0.3804641 -0.0033363588 0.6408215 0.0100910105 0.017346768 0.0018488066 -0.00049046177 0.19851123
0.036375318 -0.0010555723 0.24502946 0.3926915 -0.0033509228 0.63853514 0.0100910785 0.0172399
0.0018745069 -0.00046029658 0.19110005 0.037539367 -0.00094089983 0.24840207 0.3818226 -0.0033416299
0.64443713 -0.06887714 -0.036879018 -0.113213375 -0.0065865815 0.27854553 -0.643316 -0.077892624
0.20050383 0.5948401 -0.0041967966 0.46374944 -0.032504648 0.021729369 0.0057009356 -0.04134523
0.20360129 -0.26615453 -0.02720578 -0.0056103836 0.28252742 0.0034265644 0.5818357 0.08167106
0.11114335 0.15153323 -0.018325495 0.50486106 0.41289786 0.1238321 0.15064362 0.46601468
0.0038125638 0.40945902 0.010088301 0.01729246 0.0018684007 -0.0004651586 0.19257756 0.03701644
-0.0009888415 0.24823524 0.38689047 -0.003344445 0.64260787 0.013809168 -0.00013346982 -0.059553355
-0.009468543 0.27053264 0.12044144 0.0012295516 0.21102053 0.7232618 0.003259036 0.4519297
0.010091264 0.017239181 0.0018742144 -0.00046020007 0.19116637 0.03754464 -0.0009408562 0.24831887
0.3817834 -0.0033417114 0.6444761 0.010089983 0.017239423 0.0018773442 -0.00046172616 0.19034874
0.03758649 -0.00093594985 0.24903716 0.38159472 -0.0033406287 0.64418334 0.010663677 -0.034241237
-0.04194479 0.009600746 -0.23748039 -0.31924993 0.04161035 0.31460994 0.35570705 0.0010135407
0.52510744 0.010089773 0.017243639 0.0018769208 -0.00046067394 0.1904757 0.03753438 -0.00093981833
0.24903385 0.38198718 -0.003340905 0.6442215 -0.09163332 -0.13921276 -0.14957197 -0.053473625
0.5364205 -0.2081756 -0.080354676 0.19777928 0.21832119 -0.0032744084 0.51135886 0.010090387
0.017241301 0.0018759462 -0.00046063936 0.19073205 0.03754448 -0.0009396028 0.24876213 0.38184395
-0.0033411738 0.64431393 0.010090959 0.017234044 0.0018764862 -0.0004600077 0.19084466 0.037572455
-0.00093346654 0.24870378 0.38110474 -0.0033409745 0.64459145 0.010088821 0.01724361 0.0018792965

shared.0.bias f4 [256]
00000000: 8f2c f13e 4e56 fc3e 0b1f 233f e559 f13e
00000010: 3b7a 223f 1d2c eb3e 29b9 e93e d973 223f
00000020: 184d 233f 6c0a 223f 826e 223f 820d e73e
00000030: 0c87 123f 7e68 e03e defd 213f 8624 f03e
00000040: 176f 223f cd81 223f ef25 063f e26c 223f
00000050: f27f 003f dc70 223f ca7b 223f f780 223f
00000060: d572 223f f46f 223f b484 123f 3ee5 0c3f
00000070: 966e 223f ca6d 223f dd2f c93e 2473 223f
00000080: bcf7 223f 496d 203f f370 223f f6b6 003f
00000090: 5e86 223f 5a73 223f cf4d d33e e481 223f
000000a0: 3252 0f3f e573 223f cd5d 223f 5d8c 203f
000000b0: fc9c e83e 9472 223f ed04 223f c181 233f
000000c0: 116d 223f 07c9 223f 5220 1d3f 38eb 063f
000000d0: 8738 133f 3971 223f cd70 223f c147 023f
000000e0: 74d1 1d3f 70b8 043f 7b71 223f 5671 223f
000000f0: 4a6a 223f 0f70 223f c070 223f e8ef fc3e
00000100: db73 223f 6671 223f 4734 fa3e 3181 223f
00000110: 9d82 223f 5861 e23e f63b d93e d172 223f
00000120: 371a 093f c95e d03e 5f6e 223f 5472 223f
00000130: cf7a 223f d923 0c3f 1073 f93e 0a10 f23e
00000140: 4df3 ee3e 4250 223f 5c2d 013f 2981 223f
00000150: 3f77 223f d3b4 b83e 3971 223f d3c9 0d3f
00000160: e075 223f eaf0 f93e 7271 223f 078c 003f
00000170: d832 e23e 3232 223f a80e f13e c5c1 083f
00000180: dd74 223f 9375 223f d470 223f d24a 223f
00000190: 3e39 213f 2a70 223f bf10 c83e 9872 223f
000001a0: 4937 013f 1269 223f 4a32 233f 8674 223f
000001b0: 0eb1 233f 44a6 023f eb30 d73e ba74 083f
000001c0: e65a 1b3f e9e2 fa3e 7c38 f43e a703 dd3e
000001d0: 3d71 223f 1aee dd3e de5f e23e b0af f33e
000001e0: 594f f53e 49c3 0b3f 486e 223f 2f70 223f
000001f0: 7a70 223f dfd4 243f 56fd 143f d4f4 e03e
00000200: b5d0 f73e c545 213f 8f1b dd3e a46d 223f
00000210: a1ec 083f 14ea eb3e 0eb7 f23e d7d4 223f
00000220: a171 223f 06df e93e b7f5 043f 68e9 223f
00000230: 0f6c 223f 6375 223f 7231 213f 4770 223f
00000240: b77b eb3e 9ace ee3e c5dd 223f 7772 223f
00000250: 8fbc 013f f06e 223f 024b e93e 08e6 213f
00000260: 1b56 213f 6f1e 0c3f 4e38 c93e b706 003f
00000270: 4391 f83e 6074 223f 00e0 1b3f b36c 223f
00000280: 070e 233f 8b1c 053f 4f46 e63e 1309 223f
00000290: c17f d73e 08c8 ce3e c571 223f 08dd 013f
000002a0: 03f9 0a3f de6f 223f 42ed fc3e 576e 223f
000002b0: 4f71 223f 8492 213f e5ae f63e af76 223f
000002c0: 024b 113f 6978 223f 8afc 003f 7532 223f
000002d0: ad6e 223f a675 fd3e 3b3a d83e 066d 223f
000002e0: 6ca4 193f 0f79 223f 8c74 223f a66e 223f
000002f0: ef31 0e3f b16d fb3e 6c71 223f 7777 223f
00000300: f378 223f 7f2d 1c3f 2eab 213f d61f 0b3f
00000310: decd 033f 70a8 0a3f 0ca2 213f 4370 223f
00000320: 6971 223f e573 223f b220 d83e 0659 223f
00000330: 1d46 ef3e b486 223f 258e f53e 533b 1f3f
00000340: 736c 223f ab76 223f 2191 223f 6b74 223f
00000350: 9283 223f b972 223f 98f7 f43e 8f78 223f
00000360: 206a 223f 1744 f23e b783 223f 9a6f 223f
00000370: 8d9c 083f 4d16 233f 1770 223f fb75 223f
00000380: a16c 223f af63 223f a473 223f 5a97 093f
00000390: ea6d 073f ccb6 083f 868d 223f 9140 f33e
000003a0: 2271 223f 4c2c f33e e4b0 153f f673 223f
000003b0: f371 223f ae0d 233f 4273 223f fc77 223f
000003c0: 7b74 223f b313 de3e 2073 223f 0172 223f
000003d0: 1813 eb3e b56e 223f b62c 223f 0df6 063f
000003e0: 0476 223f 9cd6 0f3f 2d7a 063f fb07 e33e
000003f0: fb70 223f 43da 013f 8e72 223f ac14 093f
0.47104308 0.49284595 0.6371924 0.47138897 0.6346776 0.45932093 0.45649078 0.6345802
0.6378951 0.6329715 0.6344987 0.45127493 0.57237315 0.4382972 0.63277996 0.46902865
0.6345076 0.6347931 0.5240163 0.6344739 0.5019523 0.6345346 0.6347014 0.63478035
0.6345647 0.63452077 0.5723374 0.55037296 0.6344999 0.63448775 0.3929433 0.6345694
0.6365926 0.62666756 0.63453597 0.50279176 0.6348628 0.6345726 0.412703 0.6347945
0.55984795 0.6345809 0.6342438 0.6271418 0.4543227 0.6345608 0.63288766 0.63869864
0.6344767 0.63587993 0.6137744 0.52702665 0.5750813 0.63454014 0.6345337 0.5089074
0.61647725 0.5184393 0.6345441 0.63454187 0.63443434 0.6345224 0.6345329 0.49401784
0.6345803 0.6345428 0.4886801 0.6347838 0.6348055 0.44214892 0.4242856 0.63456446
0.53555626 0.40697315 0.6344966 0.634557 0.6346864 0.547422 0.48720598 0.47277862
0.4667 0.63403714 0.5045984 0.6347833 0.63463205 0.36075458 0.63454014 0.55386084
0.6346111 0.48816615 0.63454354 0.50213665 0.44179416 0.6335784 0.47081494 0.5342067
0.6345957 0.63460654 0.6345341 0.63395417 0.6297797 0.634524 0.39075276 0.63456106
0.50474983 0.63441575 0.6374861 0.6345905 0.6394204 0.5103495 0.4202951 0.5330311
0.60685575 0.49001244 0.47699344 0.4316685 0.6345404 0.4334572 0.44213766 0.47594976
0.479121 0.54594857 0.63449526 0.6345243 0.63452876 0.64387316 0.5819906 0.4393679
0.48401418 0.62997085 0.43185088 0.6344855 0.5348607 0.46077025 0.47405285 0.6360602
0.63454634 0.45677966 0.5193743 0.636374 0.63446134 0.6346037 0.6296607 0.6345257
0.45992824 0.46642 0.63619643 0.6345591 0.5067834 0.6345053 0.4556504 0.63241625
0.6302201 0.5473394 0.3930077 0.50010246 0.48548326 0.63458824 0.6088867 0.6344711
0.6369328 0.5199668 0.44975516 0.63295096 0.42089656 0.40386987 0.6345485 0.5072789
0.5428621 0.63451946 0.49399763 0.63449615 0.63454145 0.6311419 0.4818031 0.63462347
0.5675508 0.6346498 0.50385344 0.6335824 0.6345013 0.4950382 0.42231926 0.63447607
0.6001651 0.6346597 0.63459086 0.63450086 0.5554494 0.49107125 0.6345432 0.6346354
0.63465804 0.6100692 0.63151824 0.5434545 0.51486003 0.54163265 0.6313789 0.6345255
0.634543 0.6345809 0.42212445 0.6341709 0.4673318 0.6348679 0.4796001 0.62199897
0.6344673 0.6346232 0.635027 0.6345889 0.6348201 0.634563 0.4784515 0.6346521
0.63443184 0.47317573 0.6348223 0.6345154 0.5336388 0.63705903 0.63452286 0.63461274
0.63447005 0.63433355 0.63457704 0.5374657 0.5290209 0.53403926 0.634972 0.47510198
0.63453877 0.47494733 0.5847304 0.6345819 0.6345512 0.6369275 0.6345712 0.6346433
0.63458985 0.43374404 0.63456917 0.63455206 0.45913005 0.63450176 0.63349473 0.52719194
0.6346133 0.5618684 0.52530175 0.44342026 0.63453645 0.50723666 0.63456047 0.5354717

shared.1.weight f4 [256]
00000000: cc24 063f f75b 3a3f cc9a 2701 a106 023f
00000010: 1a2e eb03 5360 af3e c9f8 f13e 06c4 2582
00000020: e1ad a481 8eaf b001 7d16 8403 198c 0d3f
00000030: 6614 ee3e e720 043f f8ff 6880 8dfb f13d
00000040: 7657 2c81 45ba 0b82 a345 123f 3c84 1082
00000050: 64dc 0e3f 0965 8182 1a72 a781 fab3 2702
00000060: 624e 0a82 dfb5 5e84 11cf 013f 70fc a8be
00000070: 96ad 4282 1d72 0182 2e85 b73e 4464 7585
00000080: 046e 6e81 ce28 6f82 485f e381 1f22 a23e
00000090: 1a77 9300 7ef0 0f82 f4ae 323f 905d 0882
000000a0: 4816 ad3e ce78 0282 8660 9201 648f 1c81
000000b0: 8f10 bc3e 9ac8 a981 f290 d580 3b38 a401
000000c0: c933 9b82 2082 3702 1c73 9a81 9faa c43e
000000d0: ab5e df3e 2afd 4f82 262f 6a81 0aca d63e
000000e0: b517 9481 0f54 173f b9ee 5b01 3441 b681
000000f0: 3047 ff00 1326 9601 933e 0400 ab7d 083f
00000100: 7097 2904 fcf1 0182 feb6 063f 633e 0882
00000110: d772 6781 2a53 333f 5de4 f33e 2174 9681
00000120: ce31 023f bb44 013f 9418 b085 90de 3182
00000130: 24b8 8a00 d5a2 3e3f a956 103f 0796 0f3f
00000140: 350a 323f 2c36 0280 16da 133e 666d 4981
00000150: 0adc 7581 19de 063f 0adc 1382 2077 bb3e
00000160: daf4 1301 c2fc f33e 209c 4f80 7ccc f1be
00000170: 555f 043f 2820 a200 b0b1 c93e 1f99 dd3e
00000180: 5561 b181 b4ad ee81 9a27 1182 883f 3382
00000190: f9c7 1d01 f21d 7208 6fb6 c93e 6fbc 2e00
000001a0: 4441 2e3f a85b 2b82 f0e8 8e82 72fd 3e82
000001b0: 4e6b db81 2ae1 f33e f992 573e 7cc9 e53e
000001c0: ac8c a23e f5aa d93e bab7 bd3e 2519 123f
000001d0: 9359 9503 7c75 c03e b1a4 d83e fd47 b13e
000001e0: 3d1a 253f 644d e93e 0896 2a81 b651 d000
000001f0: de73 3982 fec7 eb81 b2c1 0a3f a513 043f
00000200: d12f 183f d855 8e02 c99b 393f a715 2982
00000210: 89d3 1c3f 2792 ed3e 97bb 3e3f b0b2 8d81
00000220: 6397 4780 f4b9 0f3f d554 b23e 7ce9 db01
00000230: 19e8 7080 9a66 1c01 36b8 1b80 ee2c 2b85
00000240: 4cee 1d3f 206e e13e da41 f980 4c03 9300
00000250: 9c3f aa3e 90e2 9281 b83c 0e3f f43f 5000
00000260: 545e 9080 815a 063f 2937 e83e 4306 153f
00000270: 8c85 543f 5187 8e01 6bf7 fb3e 6cf3 6f02
00000280: 45a3 cb81 7c62 123f 8b6a 6d3e dfad 9381
00000290: d14f 323f f09c 0c3f 7131 6500 5f74 053f
000002a0: cce4 fb3e 9d50 2000 5d49 c73e f8a2 6582
000002b0: 30dd 9781 4510 1f02 6ca1 b03e 6e06 ad81
000002c0: 3f25 fa3e 9806 af81 f1fe 1f3f bc96 e101
000002d0: fccf a881 df7c 3b3e 3e8f da3e 783e 1e01
000002e0: 32c3 063f 0612 e801 3a46 d481 a788 2680
000002f0: 05e7 ce3e 255f cc3e c775 2382 5a1e 4a80
00000300: d079 6f81 d065 1c82 afc7 9e01 442b 103e
00000310: 31b8 9d3e 163c c93e fb39 b201 6998 5882
00000320: ad14 cf81 4069 b680 3793 153f ec5a 2682
00000330: 1088 063f 651a 4082 8c9b 023f 9f3c 0981
00000340: a607 ab00 485f 8f85 a007 d700 f136 7700
00000350: 97f7 1401 8137 1280 c396 f63e 2877 1581
00000360: c525 1082 9c2e 0a3f e34f 0101 5d71 5782
00000370: 5b92 d53e 3aec 8801 ff98 a601 7e71 2482
00000380: 6733 cf01 9344 9501 53de 5200 0d73 3a3d
00000390: 9e35 dc3e 9cf6 f33e be64 a681 0641 c93e
000003a0: d5ca 1180 1a84 d73e f822 113f 04b0 a701
000003b0: 9f52 9780 e18f 9002 92b9 2682 94f3 cd00
000003c0: aefa 0b80 940f 0a3f 9ddc 4000 6cc0 1181
000003d0: fbd0 a03e 29cb 8982 8222 1601 532d 303f
000003e0: badd 7c00 8cdc ab3e efdd 993e 4f5c 063f
000003f0: 4d41 3a04 c400 b73e 69e6 0d82 0140 c73e
0.523999 0.7279658 3.0784117e-38 0.50791365 1.3822643e-36 0.34253177 0.4726012 -1.2178541e-37
-6.049359e-38 6.49041e-38 7.763426e-37 0.552919 0.46499938 0.51612705 -9.642716e-39 0.11815558
-3.165416e-38 -1.0265564e-37 0.5713751 -1.0617399e-37 0.5580504 -1.9012838e-37 -6.150984e-38 1.2320873e-37
-1.0161134e-37 -2.6179486e-36 0.50706583 -0.33005095 -1.4302686e-37 -9.510172e-38 0.35843796 -1.15382605e-35
-4.3792629e-38 -1.7570657e-37 -8.352335e-38 0.31666657 1.3542544e-38 -1.0574999e-37 0.6979821 -1.0018553e-37
0.33806062 -9.585561e-38 5.3770434e-38 -2.8755553e-38 0.36731383 -6.2368645e-38 -1.9612957e-38 6.032477e-38
-2.2804926e-37 1.3482061e-37 -5.673584e-38 0.38411424 0.43626913 -1.5280613e-37 -4.301284e-38 0.4195102
-5.440063e-38 0.5911264 4.0395222e-38 -6.6949803e-38 2.3443589e-38 5.515593e-38 3.8979e-40 0.53316754
1.9935391e-36 -9.546869e-38 0.52622974 -1.0009606e-37 -4.2510393e-38 0.70048773 0.47635165 -5.5267935e-38
0.50857246 0.504955 -1.6559989e-35 -1.3067779e-37 1.2739356e-38 0.7446721 0.5638223 0.560883
0.69546825 -2.03104e-40 0.14438662 -3.699636e-38 -4.5157263e-38 0.52682644 -1.0863002e-37 0.36614323
2.7175308e-38 0.47653776 -7.311011e-39 -0.47226322 0.51707965 1.4888886e-38 0.39393377 0.43280885
-6.5159196e-38 -8.7676644e-38 -1.0664283e-37 -1.3169076e-37 2.897982e-38 7.2859427e-34 0.39396998 4.29203e-39
0.6806834 -1.25894e-37 -2.0998724e-37 -1.4031731e-37 -8.060187e-38 0.47632724 0.2105216 0.44880283
0.3174795 0.42513242 0.37054235 0.5706962 8.777998e-37 0.37589633 0.4231315 0.34625235
0.6449316 0.45566857 -3.133171e-38 1.9131096e-38 -1.3624906e-37 -8.661234e-38 0.54201806 0.51592475
0.5944796 2.0914297e-37 0.72503334 -1.2422373e-37 0.6126028 0.46400568 0.7450499 -5.2051624e-38
-6.574628e-39 0.56143117 0.34830347 8.078293e-38 -1.0368837e-38 2.8726288e-38 -2.545641e-39 -8.0486336e-36
0.6169174 0.4402933 -2.2890662e-38 1.3501e-38 0.33251655 -5.395703e-38 0.555614 7.369782e-39
-1.325815e-38 0.5248185 0.45354584 0.5821268 0.83016276 5.235673e-38 0.49212202 1.7628806e-37
-7.4804703e-38 0.57181525 0.23185174 -5.4248765e-38 0.6965304 0.5492697 9.293121e-39 0.52130693
0.49197996 2.967654e-39 0.3892316 -1.6871033e-37 -5.578603e-38 1.1686144e-37 0.34498155 -6.355939e-38
0.48856542 -6.429431e-38 0.62498385 8.286824e-38 -6.2011896e-38 0.18309353 0.4268741 2.9064836e-38
0.52641594 8.52492e-38 -7.797727e-38 -3.53877e-39 0.4041063 0.3991634 -1.2009149e-37 -6.806715e-39
-4.3984763e-38 -1.1490289e-37 5.8326565e-38 0.14079005 0.3080459 0.39303654 6.547007e-38 -1.5912913e-37
-7.606946e-38 -1.6751817e-38 0.5842776 -1.2221847e-37 0.52551365 -1.4113507e-37 0.51018596 -2.520642e-38
1.5706614e-38 -1.3482656e-35 1.9747367e-38 1.0948133e-38 2.7360944e-38 -1.67295e-39 0.48161897 -2.7452468e-38
-1.0590288e-37 0.5397737 2.3750874e-38 -1.5828239e-37 0.41713223 5.029748e-38 6.119831e-38 -1.2081388e-37
7.611355e-38 5.4832355e-38 7.610266e-39 0.045519877 0.43009657 0.47649086 -6.112333e-38 0.3930742
-1.633966e-39 0.42092973 0.56693983 6.159868e-38 -1.3896799e-38 2.124148e-37 -1.224901e-37 1.8913656e-38
-1.100117e-39 0.5393002 5.956613e-39 -2.677035e-38 0.3140944 -2.024695e-37 2.7575407e-38 0.6881916
1.1467142e-38 0.335667 0.30052134 0.524846 2.189418e-36 0.35742772 -1.0425168e-37 0.3891602

shared.1.bias f4 [256]
00000000: d953 febc f6f3 9c3d d8ef 2581 7510 09bb
00000010: 9fbf ca84 412b 0e3e d489 dd3c 630e 5b82
00000020: 2d97 8382 d058 f281 271a 5b84 0441 1e3e
00000030: 8ddd 313d e760 203d e3e8 9182 7fc1 783d
00000040: 3138 0682 116f d981 5fbb ba3d 6052 ee81
00000050: d430 d03d 6eda 7282 6ecf 0982 30ed 7e82
00000060: 6a3b 9282 a3c6 7c84 51e8 983d 4747 47bd
00000070: 815f ce81 2f6b 5f81 fbfb a7bd 9599 5086
00000080: 3c58 a781 fbde 7682 3c5e 2782 7a2e b0b9
00000090: 286e 2581 22b3 0e82 4b80 f43d 6ef4 3182
000000a0: 581f 5f3e baf7 8a81 a27b e581 66ac 0582
000000b0: dc6e e03d 5fc7 1182 b9c4 c781 88c9 fe81
000000c0: abfa 1082 79cc 8482 8018 1f82 1837 243e
000000d0: bdb4 2d3d 56ab 0f82 8124 c481 c525 363d
000000e0: 726c d381 fa7a aa3d 33ee 0682 9f0a 1782
000000f0: 9ac8 8081 df80 7182 c8b5 3b81 e2d0 733c
00000100: 44e9 8505 1cf6 5681 9f7e aa3d 10c6 0482
00000110: 70bf 5281 75ee 293d 47b4 b1bc 97c8 2e82
00000120: e022 443d 5580 973d f009 2786 f7bb 7b82
00000130: 8839 8981 9f8f f33d 8c85 d33d e24d 5a3d
00000140: 5fc8 ad3d 480b 8581 d058 b43d bd9e ae81
00000150: d04a 7781 d8b2 de3b 766f 6281 36e2 823c
00000160: 792c a081 a78b 8e3d 806d 3580 2ec7 a6bd
00000170: 150c 0ebd da4a f281 de96 853b a157 153d
00000180: 8e0d 0a82 4abb 8a81 d809 4282 ba42 d981
00000190: d5f1 4981 d2cc 7709 00a8 02bd aec4 0c82
000001a0: 1742 e23d 8c2b b281 52cd 6582 32e3 fc81
000001b0: 87ee fb81 f887 cd3d f424 6a3d 8942 873d
000001c0: 4262 ca3d 9f59 aa3d ab71 1e3d 951b 11bd
000001d0: 9c8f 3285 22f6 843d 117e 373d 5439 863d
000001e0: f914 2fbc cad3 d83d 069c 8181 907e 0082
000001f0: bc9d e781 2cfd 9581 f875 723d 5a36 c83d
00000200: c6d2 de3d f738 8582 035f 423d 1ec4 9582
00000210: ea7f 093e 6a2a 033e d6d1 053e 9038 6d82
00000220: 407a 2982 39b6 b53d fe6f b53d 8e81 2e82
00000230: 9aff e581 c69a 4f81 27d8 d781 3644 cf85
00000240: ee1f d43d 5e39 a53d f0e1 1a81 bb1a 8c81
00000250: 4424 503d 20fc 8481 4b9c 463d 0b85 a581
00000260: 3042 3b81 e671 0a3d 4fd2 5c3c 6798 033e
00000270: 9558 4b3d d210 2a82 0230 013d 52ac 7783
00000280: a79f aa81 44c7 da3d 8ae5 5d3d 782b 9082
00000290: a1fa 6b3d 88d4 af3d d92e 9382 ffdf 5d3d
000002a0: 0d59 823d 2a96 2781 8ef9 203e 3a87 e281
000002b0: ea53 6781 2a4f 4f82 417d d4bb eb23 df81
000002c0: 93a3 533d 64bf 2181 3b61 d23d 1572 e381
000002d0: f136 a681 24be a5bc f730 1a3d 3953 4382
000002e0: 6a2b 053d 561e 4582 c3bf 0582 e824 1680
000002f0: 6a14 23bd 2332 4bbb 4170 b681 45eb bf81
00000300: e80b ea81 daac 9e82 dc31 0282 329c f13a
00000310: 8951 5c3d 7367 76bd 5ac3 b981 33a4 0c82
00000320: bcd0 c581 43f9 d181 3a34 ee3c 4096 8481
00000330: fb4b 423d 1245 3c82 147f 083e a6f7 e381
00000340: fd7a a581 4480 5486 8fc7 f881 c49e 7381
00000350: 6857 2282 9e3a 4881 461f 0f3e 4e6e ac81
00000360: d807 e581 1a1e 47bd a2b0 c581 6e21 fb81
00000370: 5938 2c3d a9bd f081 90f1 5e82 185e 4a82
00000380: 1421 f681 8d9e d981 9018 9581 443f d739
00000390: 178f 0b3e 0047 73bc 3123 0e82 4507 c23d
000003a0: 7918 0082 7f79 f03c cc30 a73d 2f2c 0982
000003b0: eacb f781 20e9 a783 789d 0e82 e04e 9681
000003c0: 4e00 c381 d4ce 213d c925 1782 03f7 dd80
000003d0: 2293 983d f73c 1b82 a6ec 9881 a9a1 b53d
000003e0: 3446 3a82 3679 343d 3052 243d 8327 053e
000003f0: 7cef 2c85 2e51 1e3d 0600 e681 981d e0bc
-0.031045841 0.07663719 -3.0477793e-38 -0.002091435 -4.7665948e-36 0.13883688 0.02704326 -1.6093708e-37
-1.933549e-37 -8.90242e-38 -2.5755335e-36 0.15454489 0.043424178 0.039154913 -2.1439506e-37 0.060731407
-9.860891e-38 -7.9872583e-38 0.091177694 -8.7545595e-38 0.10165563 -1.7842038e-37 -1.01247e-37 -1.8729042e-37
-2.1486874e-37 -2.9713667e-36 0.07466186 -0.04865196 -7.580949e-38 -4.1035532e-38 -0.08202358 -3.9233286e-35
-6.147272e-38 -1.8137218e-37 -1.2296266e-37 -0.00033603964 -3.0384747e-38 -1.0483921e-37 0.119385324 -1.3074054e-37
0.217893 -5.1048664e-38 -8.429872e-38 -9.820773e-38 0.10958645 -1.0710134e-37 -7.338334e-38 -9.359405e-38
-1.0651387e-37 -1.9513018e-37 -1.1688506e-37 0.16036642 0.042408694 -1.0555152e-37 -7.205141e-38 0.044469614
-7.766477e-38 0.08324237 -9.913125e-38 -1.1096776e-37 -4.7307623e-38 -1.7742868e-37 -3.4476897e-38 0.0148813445
1.2592948e-35 -3.9482167e-38 0.08324932 -9.75467e-38 -3.8708258e-38 0.041487176 -0.021692408 -1.2841068e-37
0.047884822 0.07397524 -3.141651e-35 -1.8494511e-37 -5.0408405e-38 0.11892628 0.103282064 0.05329693
0.084854834 -4.887267e-38 0.08806002 -6.4145284e-38 -4.542041e-38 0.006796222 -4.1589614e-38 0.015977006
-5.883853e-38 0.0696023 -4.906562e-39 -0.08143459 -0.03467949 -8.9004167e-38 0.0040768227 0.036460523
-1.0142529e-37 -5.096194e-38 -1.4255694e-37 -7.980896e-38 -3.7091375e-38 2.982785e-33 -0.0318985 -1.034202e-37
0.11047762 -6.544936e-38 -1.6883187e-37 -9.289619e-38 -9.254511e-38 0.100356996 0.057164147 0.066044874
0.098820224 0.08317875 0.03868262 -0.035426695 -8.395897e-36 0.064922586 0.04479796 0.06553903
-0.010686153 0.105872706 -4.7611e-38 -9.440276e-38 -8.5082336e-38 -5.509724e-38 0.059194535 0.09775992
0.108800456 -1.957529e-37 0.04745389 -2.2006148e-37 0.13427702 0.12809148 0.13068327 -1.7428243e-37
-1.2451243e-37 0.08872647 0.088592514 -1.2820681e-37 -8.4488085e-38 -3.813094e-38 -7.928869e-38 -1.9491243e-35
0.103576526 0.080675825 -2.8447435e-38 -5.1466234e-38 0.050815836 -4.8850924e-38 0.048488896 -6.0802335e-38
-3.4393963e-38 0.03380003 0.013477876 0.12851106 0.049645025 -1.2494455e-37 0.031539924 -7.278459e-37
-6.267723e-38 0.10682538 0.054173984 -2.1183848e-37 0.057612065 0.08585459 -2.1626598e-37 0.054168697
0.06364641 -3.0780793e-38 0.15720198 -8.321333e-38 -4.2488205e-38 -1.5230677e-37 -0.006484658 -8.19688e-38
0.05166967 -2.9708346e-38 0.102724515 -8.355033e-38 -6.1057607e-38 -0.020232268 0.037644353 -1.4350221e-37
0.032512106 -1.448198e-37 -9.82633e-38 -2.03362e-39 -0.03981439 -0.0031005226 -6.701732e-38 -7.0499914e-38
-8.597511e-38 -2.3315225e-37 -9.5652e-38 0.0018433391 0.053788695 -0.06015725 -6.8238583e-38 -1.0332698e-37
-7.266589e-38 -7.713215e-38 0.029077638 -4.870474e-38 0.047435742 -1.3831881e-37 0.13329726 -8.374199e-38
-6.0787907e-38 -3.9967003e-35 -9.1387165e-38 -4.474596e-38 -1.1926965e-37 -3.6776254e-38 0.13976774 -6.33411e-38
-8.413257e-38 -0.04861269 -7.2619827e-38 -9.225081e-38 0.042045925 -8.8434225e-38 -1.6379309e-37 -1.486762e-37
-9.0413593e-38 -7.994072e-38 -5.47692e-38 0.00041055132 0.13628803 -0.014848471 -1.0442612e-37 0.09474043
-9.410978e-38 0.029354809 0.08163604 -1.007785e-37 -9.102607e-38 -9.868901e-37 -1.0477704e-37 -5.521448e-38
-7.1632124e-38 0.039503887 -1.1104572e-37 -2.0384256e-38 0.07449938 -1.1405098e-37 -5.6175556e-38 0.08868725
-1.3685269e-37 0.04406091 0.040117443 0.13003354 -8.1313875e-36 0.038651638 -8.448869e-38 -0.027357861

shared.4.weight f4 [128, 256]
00000000: ef87 61bc ca74 f13c 8da2 0982 7725 0dbb
00000010: 4713 2d81 a9bd d23c 2aa5 363d ce6a 6702
00000020: 6cb5 0782 1abf 1e82 2a84 2582 05cd 683d
00000030: 74d6 37bc cf4e b8bc 64e8 2f02 0f7d 853c
00000040: ffab 7502 b93d 1402 2dfd e43c f9ff 8102
00000050: 2219 953d 44e6 a481 5efa dd81 b824 0080
00000060: 2a5c 6182 acf8 e403 f81b 4f3d cc72 0e3c
00000070: a2fc de81 b816 6202 57a8 ce3c e00f fc02
00000080: 5757 3e82 aa6a 9f81 f836 e601 3524 da3c
00000090: be24 f501 048e ac81 6dde 673c 0a1f c181
000000a0: 7b2e 7d3d f8ee 2d82 98f1 3b02 3569 1a01
000000b0: a03b d0bc b8ec 6580 7f07 8682 b8ca be01
000000c0: 7e35 0082 4ff7 4d81 53d6 4002 09f8 24bd
000000d0: 2c25 aa3d 301f 0880 08a1 fe01 425a 603d
000000e0: c6d0 6f02 92c5 d83c 44a2 9302 867f 8202
000000f0: 6af6 4802 20ad e900 e15e 1f02 4936 aebc
00000100: 1aca bf03 61b3 3982 38c9 db3c bc36 c081
00000110: 78ab 6080 aa1d 29bd f3b0 223b c0c1 9b80
00000120: 13c1 00bc 51f7 0c3d 740f 9e04 a92c 0a82
00000130: 56b5 9281 f487 41bc 2983 9d3d 5506 0f3d
00000140: b99f ed3d 406d 1d01 5d4c 5d3c ad84 4582
00000150: 90d1 8402 f384 62bd cad8 e881 3bf1 243d
00000160: f6b9 8902 a030 3d3d 8e4c 0c02 64e6 783d
00000170: 707d 28bc 20c9 5682 9cac f23c 6c45 0bbc
00000180: cc4d 8282 f032 8381 97ef 8f02 0436 a801
00000190: 30a0 9902 d450 d405 ed2d 323c 2e82 1802
000001a0: 6c59 303d f86c 8402 7c71 1701 d405 2b82
000001b0: e4d2 4302 3d5b 563d 9ba6 043c 3cc7 c4bc
000001c0: 8d0b 833d 8f09 4a3d 8506 49bd 1e06 88bb
000001d0: cc8b e081 a5c0 eabb 53c1 6bbc c202 d83d
000001e0: 5e67 71bc f01f b03d 80ca 5c02 90f0 be01
000001f0: a096 a980 f79b fa01 170c d03d 1d0f e93c
00000200: d920 ce3d 7667 8001 5f45 c0bc 55ff a301
00000210: d053 353c 1442 573d cef4 673d 7501 2f82
00000220: 3b01 9002 e5da 643c 8233 903d 7463 2c01
00000230: 5713 8902 cf4b 7282 a079 9880 165a 5104
00000240: 1c2f 9e3d f760 cc3c b6f7 0982 f88c 7d81
00000250: f40c 363d 1063 e201 eb7d 99bb f234 3102
00000260: bc01 dc01 f6ad 70bc ccf4 06bd 6669 f53b
00000270: 40fb 9b3c 2994 1c02 1136 573d d2aa 6d02
00000280: f9a0 5e02 4b8a 0f3d d205 1e3c 9036 8d80
00000290: 7639 1d3d 5e2e 52bd 10ce dd01 c0b0 88bd
000002a0: 8529 893c cc48 0a02 3b9c b73d 23e4 1c02
000002b0: 9ae4 ad01 a4b0 4881 6cd8 183b 90c3 d601
000002c0: 6b6b 523c e946 a981 964c 4e3d fb82 4602
000002d0: 6413 3882 27cb 553c 3996 343d 88a7 7102
000002e0: aa48 443d 4eae 8282 c5a1 3902 0ac3 8502
000002f0: 33a6 cf3c f9b0 b03c b733 e001 54d4 3102
00000300: d669 df01 3066 d301 67c7 9382 b446 653c
00000310: 8e4f 6bbc a969 3abc ebc2 1f02 de17 1b82
00000320: 248b eb81 47b7 f900 6aa7 2d3c 9870 d981
00000330: e9da c0bc f9c9 6d82 1975 72bc ecb0 5d82
00000340: 2a69 9001 6399 8c04 7720 4982 0b1a 1b02
00000350: 7bfa 1a02 b7d4 8f82 0aa9 143d 9406 4f82
00000360: 6441 1d02 a5d9 9cbc 8209 3282 a8d7 dd81
00000370: 8e8f 99bb 1a20 de81 96fe ea81 8585 2681
00000380: a0a0 3082 7783 5882 8992 4a02 f08c 7d3b
00000390: 3330 923d 3893 063d c8ac ac81 4e9d bc3c
000003a0: 0097 fa81 34fe 2d3d 7d87 143d e6e4 9182
000003b0: 30d4 5d81 8efb 9e01 38e3 9981 c49a 0d02
000003c0: 3017 7200 885c e1b8 37b8 8502 6c5f 2901
000003d0: 3689 1c3d 679e ac81 76fa 0682 4b1a 303d
000003e0: d60e dd81 e02f 0d3c 8f2a 673c c11c e93d
000003f0: d05b 7882 74d1 6fbc b254 a100 d8a0 a3bc
-0.013765319 0.029474635 -1.011182e-37 -0.0021537223 -3.1788912e-38 0.025725203 0.044591106 1.7001851e-37
-9.970299e-38 -1.166285e-37 -1.2160215e-37 0.056836147 -0.011220563 -0.022498516 1.2923662e-37 0.016294984
1.8049118e-37 1.0891036e-37 0.027952755 1.9101768e-37 0.07280184 -6.05745e-38 -8.154184e-38 -1.3172e-41
-1.6556839e-37 1.3457728e-36 0.050563782 0.008694362 -8.191243e-38 1.6610378e-37 0.025226755 3.7037184e-37
-1.3984061e-37 -5.856043e-38 8.456753e-38 0.026628593 9.005151e-38 -6.3386604e-38 0.0141521515 -7.094154e-38
0.061811905 -1.2778613e-37 1.3807924e-37 2.8360815e-38 -0.025419056 -9.360304e-39 -1.9693833e-37 7.0085864e-38
-9.419306e-38 -3.782999e-38 1.416744e-37 -0.040275607 0.08307871 -7.45872e-40 9.353593e-38 0.054773577
1.7618862e-37 0.026461396 2.1692845e-37 1.9174978e-37 1.4764397e-37 2.1459776e-38 1.1708704e-37 -0.02126612
1.1272371e-36 -1.3643133e-37 0.026829347 -7.06082e-38 -8.877719e-39 -0.041288055 0.0024824708 -1.4304006e-38
-0.0078585325 0.034415547 3.7159813e-36 -1.0151456e-37 -5.3892134e-38 -0.011812199 0.076910324 0.034918148
0.1160273 2.891473e-38 0.013506976 -1.451135e-37 1.951594e-37 -0.05530257 -8.553442e-38 0.040269118
2.0237077e-37 0.04618895 1.0307546e-37 0.060766593 -0.010283813 -1.5779957e-37 0.029623322 -0.008500438
-1.9146436e-37 -4.819489e-38 2.114948e-37 6.179096e-38 2.2573273e-37 1.9966076e-35 0.010875207 1.1204556e-37
0.04305403 1.9458202e-37 2.781574e-38 -1.2564768e-37 1.438686e-37 0.052333105 0.008096362 -0.024020784
0.063986875 0.049325522 -0.049078483 -0.00415112 -8.2485203e-38 -0.0071640783 -0.014389354 0.10547401
-0.014734117 0.085998416 1.6221162e-37 7.014017e-38 -1.5574233e-38 9.2059295e-38 0.10158556 0.02844959
0.10064859 4.7168233e-38 -0.023470579 6.0243127e-38 0.011067346 0.05255325 0.05662995 -1.2857388e-37
2.1159605e-37 0.013968204 0.07041074 3.1662765e-38 2.0141441e-37 -1.7801108e-37 -1.4002626e-38 2.4609197e-36
0.07723829 0.02494858 -1.013626e-37 -4.65699e-38 0.044445947 8.3161436e-38 -0.0046842 1.3019101e-37
8.0817725e-38 -0.014689913 -0.0329483 0.007489371 0.019040704 1.150359e-37 0.052541796 1.7461033e-37
1.6356181e-37 0.035043996 0.009644942 -1.2968378e-38 0.038384877 -0.05131375 8.1478264e-38 -0.066743374
0.01674343 1.015953e-37 0.089653455 1.1526542e-37 6.387819e-38 -3.6860932e-38 0.0023322357 7.8891803e-38
0.012842993 -6.2182546e-38 0.050366007 1.4584332e-37 -1.352375e-37 0.013048924 0.044088576 1.7753963e-37
0.04792086 -1.920183e-37 1.3638079e-37 1.965454e-37 0.025347805 0.021568762 8.235881e-38 1.3064841e-37
8.206913e-38 7.765579e-38 -2.171416e-37 0.013993908 -0.014362229 -0.01137773 1.1737414e-37 -1.1394451e-37
-8.6525023e-38 2.2932786e-38 0.010598997 -7.9874775e-38 -0.023541884 -1.7469973e-37 -0.014798426 -1.628729e-37
5.304815e-38 3.3054705e-36 -1.4776465e-37 1.1395075e-37 1.1386017e-37 -2.1134054e-37 0.03629402 -1.5209846e-37
1.1553305e-37 -0.01914675 -1.3080103e-37 -8.149203e-38 -0.0046863025 -8.1595984e-38 -8.632334e-38 -3.058518e-38
-1.2976535e-37 -1.5906902e-37 1.488267e-37 0.0038688742 0.071380995 0.032855242 -6.343075e-38 0.023024227
-9.205217e-38 0.042478755 0.036262024 -2.1437216e-37 -4.0743526e-38 5.8400997e-38 -5.6529367e-38 1.040346e-37
1.0477565e-38 -0.00010746071 1.9648328e-37 3.110886e-38 0.038216792 -6.341012e-38 -9.916644e-38 0.042993825
-8.1203867e-38 0.008617371 0.014109268 0.113824375 -1.8246511e-37 -0.01463734 1.4815898e-38 -0.019974157

shared.4.bias f4 [128]
00000000: 4417 e93e 085f a23e 5286 b33e 1f39 e93e
00000010: c6d7 e53e 6c75 bb3e 0914 113f 5b96 953e
00000020: 9071 e83e 0aad a83e 78f1 363e 2d39 e93e
00000030: 5344 d23e 74d6 e83e 316b e93e 017c c93e
00000040: 09ab 7e3e 8dd3 a13e a741 b63e da28 c73e
00000050: 0d7e a53e ea37 ab3e 8bf7 b83e d045 903e
00000060: 8f6f e53e 70be e33e 5da5 c63e 3d38 d23e
00000070: 628c c93e c658 c53e f27b e93e e0fb 183f
00000080: 3709 ed3e 50e7 c43e e283 af3e 416d 9a3e
00000090: eb39 c53e ea32 e43e da30 cf3e 4fb2 cc3e
000000a0: 6d17 e93e 6eeb d33e 3d6b e93e 3200 e93e
000000b0: 0eba e93e 6b02 ae3e c59d df3e 7e3f b13e
000000c0: c708 c63e db2c e93e c48f ba3e 92b7 ca3e
000000d0: 576a db3e b64f a43e 19f3 943e f7bc d53e
000000e0: c774 e93e 0c9a 053f 1b9a c23e 366a 563e
000000f0: 1af2 b53e e3ae ca3e dcfb d33e 67c7 b63e
00000100: f26a e93e 20be d53e 6b6a e93e d169 e93e
00000110: 167a dd3e ce1d cd3e a4f5 a93e dca7 8c3e
00000120: e2ea 953e 135f d33e a4d3 a43e f390 e43e
00000130: 25f1 f63e 2df0 8d3e 91ff 663e f0c4 e53e
00000140: 7f89 bf3e d463 e73e e1f0 ea3e db17 9f3e
00000150: 1df2 e93e caf1 c33e d511 a83e 7037 e93e
00000160: 22fa 903e 5310 e93e 264f 933e ee6c d53e
00000170: 9f1d af3e d1ba c83e 5f56 8c3e ca69 e93e
00000180: 6566 b03e 1a6b e93e 774f a63e 9a6a e93e
00000190: 608a ea3e f6ad e03e 19b4 e43e bfb7 a13e
000001a0: 7f92 923e 9f91 403e 5007 a83e 9357 cd3e
000001b0: 3bf7 823e cf6a e93e c1a0 e93e 7b35 c53e
000001c0: 9dc5 c23e 11dd f23e 022c e93e e79b c93e
000001d0: 5348 e93e 1fa4 8b3e 5e15 d53e b74c e93e
000001e0: 9962 d53e 3318 b13e 3d29 dc3e 1460 be3e
000001f0: 0b7c ed3e 628a 653e dfdc 8a3e d940 e93e
0.45525563 0.31713128 0.35063416 0.45551392 0.44891185 0.36613023 0.56671196 0.29216275
0.4539914 0.32944518 0.1786555 0.45551434 0.41067752 0.45476115 0.45589593 0.3935242
0.24869932 0.31606713 0.35596964 0.38898355 0.32322732 0.33441097 0.3612636 0.28178263
0.44811675 0.4448123 0.38798037 0.4105853 0.39364916 0.3854429 0.45602375 0.5975933
0.46296093 0.38457727 0.34280306 0.3016148 0.3852075 0.44570094 0.40466958 0.3997979
0.45525685 0.41390556 0.4558963 0.45507962 0.4564976 0.3398622 0.43675056 0.34618753
0.38678572 0.45542035 0.3643781 0.39593178 0.42854568 0.32092065 0.2909172 0.4174573
0.45596907 0.5218818 0.38008198 0.20938954 0.3553627 0.39586553 0.4140309 0.35699007
0.45589405 0.41746616 0.45589003 0.45588544 0.43257207 0.40061802 0.3319522 0.27471817
0.29280764 0.41283473 0.3219272 0.44641837 0.48230854 0.27722302 0.22558428 0.44876814
0.3740959 0.4519335 0.458869 0.31072888 0.4569253 0.38270408 0.32826105 0.45550108
0.28315836 0.45520267 0.28771323 0.4168467 0.34202287 0.3920503 0.27409646 0.45588523
0.3445312 0.45589525 0.32482502 0.45589143 0.45808697 0.43882722 0.44668654 0.315855
0.28627393 0.1880555 0.3281808 0.40105876 0.25579247 0.455893 0.45630458 0.38517365
0.38041392 0.47434285 0.45541388 0.39376757 0.45562991 0.27273652 0.41617864 0.4556634
0.41676787 0.34588775 0.43000212 0.37182677 0.463837 0.2241607 0.27121636 0.45557287

shared.5.weight f4 [128]
00000000: 5c15 9101 bbce fb3e a619 053f c40e 3181
00000010: 095a 8f80 6061 ab3e 0373 abbe a264 0d3f
00000020: f20b 4780 4214 013f 1cf6 fe3e bf1b 6301
00000030: 1bc2 bb3e 9dff 0d00 b415 4580 839d d33e
00000040: 8f99 d83e ccc5 d93e 0dab e33e 50ae e83e
00000050: d9f4 b03e 6391 e03e ffde b33e 0083 f43e
00000060: bb2c 2681 17f6 e93e 2461 ca3e e82e ee3e
00000070: 9511 d63e 258b ea3e 526d fe80 197a bfbe
00000080: 5b5f 5b81 a023 d63e 86b0 af3e e21f f73e
00000090: f098 a5be ec9f 013f 6a9c 013f 3fd3 e33e
000000a0: fde8 df01 752e d13e 3037 0681 e911 bb01
000000b0: dc38 0781 6960 8d3c 21b1 3101 6f30 dd3e
000000c0: 251c fa3e 5406 0b01 822d b3be 7d2d ce3e
000000d0: cc00 c1be d8dd f93e c1bb db3e 6856 cb3e
000000e0: a44f 2e00 ac54 c3be 6120 d9be b746 063f
000000f0: d171 ba3e 1753 eb3e 3846 d23e 983a 53be
00000100: 2fe9 9780 7f1f f33e 707c 5e80 7e17 0001
00000110: 8615 c33e 21d5 f53e 77e2 c93e 6296 fd3e
00000120: f0e0 d83e 0223 bb3e b427 e73e 12b7 2681
00000130: 2494 9dbe 0282 e23e 3a68 b43e 66cb a901
00000140: 9c5a fd3e b838 e13e 9e96 9ab8 60d8 023f
00000150: 7772 dc80 aadf a23e 479b cb3e 509d 9801
00000160: 1c10 093f ab67 4a01 d162 0b3f d7eb 673e
00000170: e75c 023f 16e6 d83e f88a 0f3f 188e 9f00
00000180: ccc2 c33e 90e8 3081 e660 cf3e 00aa 9300
00000190: 4f11 0480 ce7d d53e 065f 7d80 49ac cd3e
000001a0: 5f1a d63e 3663 cc3e 4eb3 0512 78eb c33e
000001b0: 2334 dc3e f47f b181 b583 3902 fce9 f23e
000001c0: 48d0 813e ffa6 cbbd 5194 e480 e7f4 9d3e
000001d0: 6882 7a81 9110 0e3f 0417 e23e 2d1a 7300
000001e0: 0e28 e93e 3a15 be3e 9b34 bb3e f6b4 ed3e
000001f0: 3b2a 1900 e7eb 0a3f da4c b43e bbb5 2b01
5.3295237e-38 0.4918116 0.5199226 -3.252036e-38 -1.3164774e-38 0.3347273 -0.33486184 0.5523168
-6.524605e-39 0.50421536 0.49797142 4.1713222e-38 0.36671528 1.285558e-39 -6.344435e-39 0.4133111
0.42304656 0.4253372 0.4446644 0.4544549 0.34561804 0.4386092 0.3513107 0.47756195
-3.0521477e-38 0.45695564 0.39527237 0.46520162 0.4181029 0.45809284 -2.3365433e-38 -0.3739784
-4.0292362e-38 0.41824055 0.34314364 0.48266512 -0.32343245 0.50634646 0.50629294 0.44497105
8.2251584e-38 0.40855756 -2.4651508e-38 6.871865e-38 -2.4836379e-38 0.017257886 3.263685e-38 0.43201014
0.48849598 2.5534808e-38 -0.34995657 0.4026908 -0.3769592 0.48802066 0.42916682 0.3971436
4.253002e-39 -0.38150537 -0.42407516 0.5245165 0.3641496 0.4596183 0.41069198 -0.2062782
-1.395081e-38 0.47484967 -8.677176e-39 2.3526742e-38 0.3810236 0.48014167 0.3943059 0.49528795
0.42359114 0.36550146 0.4514748 -3.062073e-38 -0.30777085 0.44239813 0.3523577 6.237266e-38
0.49483192 0.43988585 -7.371347e-05 0.5111141 -2.0244871e-38 0.31811267 0.39766905 5.6061714e-38
0.53540206 3.7175919e-38 0.54447657 0.2264856 0.5092301 0.42363042 0.56071424 1.4652818e-38
0.38234556 -3.249295e-38 0.40503615 1.3560802e-38 -3.73551e-40 0.41697544 -1.1513525e-38 0.40170506
0.41816995 0.39919442 4.218841e-28 0.38265586 0.43008527 -6.5203135e-38 1.3629451e-37 0.4744414
0.25354218 -0.09943961 -2.0991699e-38 0.30850908 -4.601131e-38 0.5549403 0.44158185 1.0570472e-38
0.45538372 0.3712557 0.36563572 0.46427125 2.311037e-39 0.5426621 0.35214883 3.1538125e-38

shared.5.bias f4 [128]
00000000: 2ac1 3282 0308 febd a1c3 04be 11ed 1f82
00000010: 301c 3381 8631 ddbd 7a91 3f3d 6b11 63bd
00000020: 7570 f481 8a3f b0bd 6a62 bdbb af1e ec81
00000030: b234 8e3c 1637 b481 daf2 1c81 dcfb 13be
00000040: 93e1 88be 4533 92bd c455 b7bd e702 bd3c
00000050: 6ac7 03bd 9e16 d5bd a2ca 33bd 8afa 00be
00000060: c752 0982 c480 fbbd 72f1 48be f452 24bd
00000070: f1ad 13be 383a 2abe 27d5 6d81 1f0f 073d
00000080: 0823 0182 ad66 7bbd a3ae 10be 88a6 bcbd
00000090: b698 88bd 7993 09be 5bfe bdbd 9df1 72bd
000000a0: dab2 2082 1114 69be c3c6 fe81 9ec4 2082
000000b0: 6919 5481 0326 7139 e57c f781 a130 1ebe
000000c0: 58db acbd e62f ab81 ab1f 87bd 228e 55bb
000000d0: 8c02 ae3c 456d 03be 9e64 5b3c 4a9f ccbd
000000e0: 49b5 3181 90a7 f1bd c4a3 e4bd b286 0bbe
000000f0: 8d71 38be 7e24 adbd 8aa8 13be 7484 d53c
00000100: f205 9981 198a 8bbd 2ca3 ed81 e2ee 1282
00000110: 8730 c2bd c970 353a b1c4 a9bc 0892 2fbe
00000120: da5f aabd 7004 37be 315c a1bd caa3 8e81
00000130: f27e 473b 8c83 063d bb36 08bd fe84 2c82
00000140: ca47 90bc 38fb c9bd 30fa 04b9 4c99 7bbc
00000150: 5c0c ad81 02a4 2fbe d913 0ebe 058c 2e82
00000160: f514 66bd 5fbc 0e82 7787 25be 083a bebc
00000170: 8957 b2bb 3cee 26be 3279 42bd a09c 0482
00000180: db61 d5bd 6627 0582 9865 89be 1075 5a81
00000190: f8cd d881 ff86 97bd aa37 de81 2ce6 42be
000001a0: 84f3 71be 226f 26be 448f 0592 2de6 89bd
000001b0: f0fb 0dbe 942a 5982 f6a5 8a82 d707 88bd
000001c0: afb6 693c 1590 dc3c 4f0f c981 0d81 34be
000001d0: 447a 1182 2f6e b1bd d588 183d f25a f881
000001e0: 491d 0abe 70f8 5cbd 3f83 02bc d405 90bd
000001f0: 4ae3 d681 1e62 1fbe 64b4 e4bc c76d f781
-1.313281e-37 -0.12403872 -0.12965252 -1.174951e-37 -3.289733e-38 -0.108004615 0.046769597 -0.055436533
-8.979281e-38 -0.08605869 -0.005779554 -8.6736737e-38 0.017359111 -6.62006e-38 -2.8826912e-38 -0.14451545
-0.267346 -0.07138685 -0.08951905 0.023072673 -0.032172598 -0.104047045 -0.043894418 -0.12595573
-1.0088926e-37 -0.122804195 -0.19623354 -0.040118173 -0.14421822 -0.16623771 -4.3682954e-38 0.032973405
-9.487477e-38 -0.061377216 -0.14129119 -0.09211451 -0.06669752 -0.13435163 -0.0927703 -0.05931245
-1.1806271e-37 -0.22761561 -9.3590073e-38 -1.181137e-37 -3.895648e-38 0.00022997711 -9.0912685e-38 -0.15448238
-0.08440274 -6.288421e-38 -0.06597837 -0.0032585938 0.021241449 -0.12834652 0.013390688 -0.099913195
-3.263983e-38 -0.11799538 -0.11164048 -0.13625601 -0.18012066 -0.08454226 -0.14419761 0.026064135
-5.6211855e-38 -0.068134494 -8.729419e-38 -1.0794942e-37 -0.09481912 0.00069214083 -0.020723673 -0.1714555
-0.083190635 -0.17872787 -0.07878912 -5.239759e-38 0.0030440656 0.032840297 -0.03325532 -1.2674731e-37
-0.017612357 -0.09862369 -0.00012681703 -0.015356373 -6.35679e-38 -0.17152408 -0.13874759 -1.2823685e-37
-0.05617233 -1.0486572e-37 -0.16164957 -0.02322103 -0.005442564 -0.16301817 -0.047478862 -9.742778e-38
-0.10419055 -9.782604e-38 -0.26835322 -4.0124265e-38 -7.964142e-38 -0.07398795 -8.1629795e-38 -0.19033116
-0.2362805 -0.16253331 -4.214399e-28 -0.06733356 -0.13865638 -1.5954861e-37 -2.0372534e-37 -0.0664212
0.014264747 0.026924172 -7.3857706e-38 -0.17627354 -1.0688006e-37 -0.08663594 0.03723987 -9.123131e-38
-0.13487734 -0.053947866 -0.007965862 -0.070323616 -7.893733e-38 -0.15564772 -0.027918048 -9.0890993e-38

actor.0.weight f4 [64, 128]
00000000: a65e ba01 15ab 4f3d 7f12 26bd 2e74 2302
00000010: 83d5 5702 d6a9 e73d a97d 393d 9105 413c
00000020: aaba dc01 350d 1e3a eae7 92bd d8f5 4780
00000030: b43b 083e 3eba 6402 be08 4d82 4d58 153d
00000040: 506f 8ebd 0ffa 573d 429a 813d 8c5c 623c
00000050: fcde 4a3b db28 df3d 6082 97bc 6db7 eebc
00000060: 956b 3c01 89ef 113c 96cc cbbd 44fc 75bc
00000070: 7019 adba c0cd 393b 9d24 4e82 8199 583d
00000080: 124d 9581 55fb 84bd fe79 813d 944f 39be
00000090: f5f6 b5bd 7504 c8bc be8f 553b 1190 8cbd
000000a0: 90a7 3a01 00ab 293c 48fa 6300 19d2 5202
000000b0: e0f7 8082 1b51 64bc 3339 8082 55af 8e3d
000000c0: d5f3 0cbc 646c 5402 1bba 3ebe fe8d 553d
000000d0: 64f3 73bc 3625 00be 6eba 21bc 40cc 7bbb
000000e0: cf31 7482 fe4d 3bbd a20d b03a 38bf 3f3d
000000f0: 9cca 3fbd 8ab7 0d3d ccaa 443d 662d 4cbd
00000100: b6bc 9282 2ca0 d5bd 312d 0602 50b6 fa81
00000110: 0760 e7bc e0f5 b03d 6ebc 713d 8bae 6bbd
00000120: 9d04 a83d 097f e73c 12a7 d2bd 661c 8202
00000130: e9ae 373d e766 963c 8efd af3d e8ea 4782
00000140: fa72 c4bd 8b4e 443c 45d4 e681 e368 713d
00000150: 786f db81 66ab 5c3d aef6 d8bd 2443 6e00
00000160: 371c 293d 1e1b e181 9ffa 103e 2f14 c13b
00000170: 3523 64bd abfd 81bd 021d 54bd 5c04 1401
00000180: 1f1c 8dbd a34a 4882 9289 d8bc c8f1 fb80
00000190: 84ae c701 1602 fd3c e037 6682 1084 a8bd
000001a0: 173e a13c 9d91 bb3c c327 ca8d e7c6 7abd
000001b0: daad 6fbc 5825 4680 9353 9002 58a7 41bc
000001c0: 90f6 05ba 5f1c e5bc c0b2 9201 a603 ad3c
000001d0: 738b 0782 23fc c03d 22c6 efbc 20f1 a580
000001e0: af36 ca3c 3b89 d23d f2db b73d 08b6 703d
000001f0: 52dc 3e02 767f 05bb b8d9 3e3b bc25 f181
00000200: c01b db00 f792 8d3d 6205 33bd 98b5 5880
00000210: b0d3 2181 f34a b9bd 96fc 773d 097e 873d
00000220: aa87 3802 f7df f6bd fb5a 25bd e47a 8d82
00000230: 7637 34bd 25c5 af81 20fc 2a82 bd81 9fbe
00000240: b7df 65bd 0694 c9bd 01fc f33c 2158 1dbe
00000250: 0bb0 953d d697 6dbd c0a5 45bd 425d 46bc
00000260: 9cb2 5d02 ee38 2d3c 2423 5b3b 314d 95bd
00000270: 1eb5 75be 64f6 1fba 7ce6 4d82 08ba 8f3d
00000280: d807 8482 a6d3 74be caa3 86bd 6a15 3ebd
00000290: 8f02 7abd cbf9 5d3b 2c08 eabd 5dc2 30be
000002a0: 805c 0200 6c3d 693c 39df 8202 c585 3082
000002b0: aec0 cc01 1514 0cbc 8c7c 7002 9ddf 873c
000002c0: 7542 79be 1aa8 9c01 855a 7dbb ec3e 77bd
000002d0: cdfe a93d fe3a 37bd b9f0 b7bd 958a 863d
000002e0: 4d91 8302 73f7 e3bd d556 463d ae7f 2f3d
000002f0: 820b 77be b8af 9cbd ee09 ffbd c647 b8bd
00000300: 5bad 3c02 51d6 1b3c a212 6500 95a4 6e02
00000310: c228 1a3d 9a28 30bc 6ab6 38bd d462 793d
00000320: 8912 a33d 0125 083b be86 e4bd 7cc1 f381
00000330: eff1 7f3d 4752 bdbd 66ee 23bd 3254 7802
00000340: 64f9 71be ddbd 833d 9288 9709 6713 b3bc
00000350: 0fc2 4902 6510 9f3d 06e0 b7bd 9240 9581
00000360: e6a2 47bd 449d fd81 b249 19bd c597 42bd
00000370: 7872 a1be aef1 85be ee7c bf3c 16b3 1382
00000380: bff6 61be 11a5 3680 d257 9cbd 4127 1c82
00000390: 87e3 8d82 d22a 283d 7039 2181 03c0 3ebc
000003a0: bd50 30be e248 9d3d 03f4 8c10 b30f 9dbb
000003b0: e13f da3b 7b7c 8601 2f2d 1102 23cf 4cbe
000003c0: 7331 0cbd dd72 fc3c 26f4 8102 d3ae 47bc
000003d0: 0a60 5781 0d9c 35bd 666b f7bb 59fe 0b02
000003e0: d7ca d2bd 77bd 943d 2988 813c 1ab6 4ebc
000003f0: e1a5 7981 95b9 1d3c 6742 83bb ac1b 8a82
6.8461423e-38 0.050700266 -0.040544983 1.2008691e-37 1.585698e-37 0.113116905 0.045285854 0.011781112
8.1083086e-38 0.00060291897 -0.0717314 -6.608512e-39 0.13304025 1.6804243e-37 -1.506353e-37 0.036461163
-0.06954825 0.05272871 0.063282505 0.01381601 0.0030955663 0.108964644 -0.018494785 -0.029140199
3.4607333e-38 0.008907207 -0.09951131 -0.015013758 -0.0013206434 0.0028351396 -1.5144997e-37 0.052880768
-5.4844546e-38 -0.0649325 0.06322096 -0.18096763 -0.08884994 -0.024416188 0.0032586898 -0.06863416
3.4283025e-38 0.010355711 9.181498e-39 1.5488658e-37 -1.8950183e-37 -0.013935353 -1.884074e-37 0.06967036
-0.008603056 1.5606407e-37 -0.18625681 0.052137367 -0.014889572 -0.12514195 -0.009871108 -0.0038421303
-1.7940583e-37 -0.045728676 0.0013431797 0.04681322 -0.046824083 0.034598865 0.048014447 -0.049847983
-2.1561087e-37 -0.10430941 9.857734e-38 -9.20971e-38 -0.028244032 0.08640647 0.05901759 -0.057539504
0.08204005 0.028258817 -0.102857724 1.9118083e-37 0.04484454 0.018359615 0.085932836 -1.4687626e-37
-0.095922425 0.011981617 -8.479325e-38 0.05893792 -8.0607844e-38 0.053874396 -0.105939254 1.012599e-38
0.041286673 -8.269086e-38 0.14158104 0.0058922986 -0.05569764 -0.063472115 -0.051785477 2.7186435e-38
-0.06890129 -1.4715099e-37 -0.026432786 -2.3137444e-38 7.335147e-38 0.030884784 -1.6913767e-37 -0.08228314
0.019682927 0.022896582 -1.2458783e-30 -0.061224844 -0.014628852 -6.441881e-39 2.1206868e-37 -0.011819683
-0.0005110288 -0.02796763 5.3888423e-38 0.021119904 -9.958254e-38 0.09423091 -0.029269282 -1.5239356e-38
0.024684278 0.10280081 0.08977498 0.05876735 1.4022224e-37 -0.0020370162 0.002912147 -8.8583564e-38
2.0121928e-38 0.06912797 -0.043706305 -8.146667e-39 -2.9722908e-38 -0.090474986 0.06054362 0.06615836
1.3557119e-37 -0.12054437 -0.04036997 -2.0788624e-37 -0.043998204 -6.4567736e-38 -1.2561984e-37 -0.3115367
-0.056121554 -0.09842686 0.02978325 -0.1536565 0.07308968 -0.05800613 -0.048253775 -0.012107195
1.6287774e-37 0.010572655 0.0033437693 -0.07290114 -0.23994872 -0.0006102084 -1.5127167e-37 0.070179045
-1.940016e-37 -0.23908862 -0.06574209 -0.04640714 -0.061037596 0.0033870812 -0.1142734 -0.17261644
2.16854e-40 0.0142358355 1.9229907e-37 -1.2968828e-37 7.5214247e-38 -0.00854971 1.7668158e-37 0.01658612
-0.24341758 5.7546564e-38 -0.003865869 -0.06036274 0.083005525 -0.044733994 -0.08981461 0.06569401
1.9332119e-37 -0.111311816 0.048422653 0.042846374 -0.24125484 -0.07650703 -0.12453066 -0.08998065
1.3861809e-37 0.009511546 9.28207e-39 1.7532711e-37 0.037636526 -0.010751868 -0.04509584 0.060885265
0.0796252 0.002077401 -0.111585125 -8.954174e-38 0.062486585 -0.09244209 -0.040022276 1.8244325e-37
-0.23630291 0.06432698 3.6480358e-33 -0.021859838 1.482284e-37 0.07766799 -0.08978276 -5.482661e-38
-0.048739336 -9.316319e-38 -0.037423797 -0.04750802 -0.31532645 -0.2616095 0.023375 -1.085125e-37
-0.22066782 -5.018331e-39 -0.07633938 -1.1472335e-37 -2.0848682e-37 0.04105646 -2.961224e-38 -0.011642459
-0.17218299 0.07679917 5.559622e-29 -0.0047931313 0.006660447 4.9402447e-38 1.0665885e-37 -0.20000891
-0.034226846 0.03081649 1.909498e-37 -0.012187677 -3.9558168e-38 -0.044338275 -0.0075506447 1.0285101e-37
-0.10292595 0.072627 0.015811997 -0.012616659 -4.585309e-38 0.009626766 -0.0040057185 -2.029316e-37

actor.0.bias f4 [64]
00000000: 3e57 c13c 588d 103f a0cf 47bb 6703 40ba
00000010: ef09 18bd b33e 72bd e346 033c db04 243e
00000020: 68d9 60bd c947 79bd 6b14 36bc 149b 533e
00000030: 1ebb 33be 7751 6f3c 015e 203f d100 cabb
00000040: 1e98 d43e 706a 78be 9524 4bbe ba4d 8cbc
00000050: 3167 0e3e 2df4 2dbe 561a 2c3f 1368 5b3d
00000060: 774a 66bd a2c8 a03d 713d d23d 200e 493e
00000070: f95a d5ba 7bdd 403e 5d75 11bc 77c6 ec3c
00000080: 0c90 a7bb c6b4 063e 4910 2e3f f3e7 92bd
00000090: b9d9 22bd 3de3 f83e c449 29bd 023f 7a3d
000000a0: 8af2 aa3d 87cd 8f3d 5741 473e d7bd da3e
000000b0: b155 603e 6909 8db9 82b0 6c3d 0bd6 95bd
000000c0: 7488 1b3c a8bb cc3e 98ac cebd 6317 c6bd
000000d0: 7a88 083e b0c8 163f 61cf 3b3e 6b01 963e
000000e0: e900 103f 49ae fbba db4f 073f 5849 e8bd
000000f0: f6f7 493d ef12 743f 0348 293d 149e 25bd
0.02360117 0.56465673 -0.0030488744 -0.0007324726 -0.03711885 -0.059141826 0.008012506 0.16017477
-0.054894835 -0.060859475 -0.011113266 0.20664626 -0.17551848 0.014606825 0.6264344 -0.006164648
0.41522306 -0.24259353 -0.19838174 -0.017126907 0.13906552 -0.16987677 0.67227685 0.05356605
-0.05622336 0.07850768 0.10265625 0.19634295 -0.0016277722 0.18834488 -0.008878079 0.02890323
-0.0051136073 0.13154897 0.679936 -0.07173147 -0.039758418 0.4861087 -0.041330114 0.061095245
0.08347042 0.07021623 0.19458519 0.4272296 0.21907689 -0.00026900627 0.05778552 -0.07316216
0.009492982 0.3998692 -0.100915134 -0.096724294 0.13333312 0.58899975 0.18340828 0.29297957
0.5625139 -0.0019201721 0.52856225 -0.11342114 0.04930874 0.9534139 0.04132844 -0.04043396
